nn_model_bot/loosey_goosey_model_only_bet_and_check.pkl (torch, 126029 bytes, 26 tensors)

weight f4 [4, 2]
00000000: 7f1a 3a3f 30f5 d03f d238 64be 8d49 963e
00000010: 69e1 193e 3876 88bf 435a a13e de31 46bf
0.7269668 1.6324825 -0.222873 0.2935299 0.15027393 -1.0661077 0.31514177 -0.7741984

weight f4 [3, 2]
00000000: d6fa b9be 6b32 763f 2e64 b2bc 2ffe 1bbf
00000010: 7555 15c0 8ec3 ccbe
-0.36324185 0.9617068 -0.021776285 -0.6093473 -2.333341 -0.39992946

weight f4 [4]
00000000: 1dc4 593f f45f 8e3f 39da a53f 4332 3f3f
0.8506487 1.1123033 1.2957221 0.7468607

bias f4 [4]
00000000: dd31 c83c fd22 9bba 3012 2ebe 625d cbbd
0.02443784 -0.0011835989 -0.16999125 -0.09929921

running_mean f4 [4]
00000000: 9389 0c3f 4489 b9bb 4ec1 2e43 1f9f c03e
0.5489742 -0.0056621153 174.7551 0.376214

running_var f4 [4]
00000000: a7bd 443d a973 0a3d d1ea fd44 ac16 c23e
0.04803243 0.03380171 2031.338 0.37907922

weight f4 [200, 8]
00000000: e3b1 c13d d013 913e 91bb 5fbe bf0a 66bb
00000010: 35c9 8a3c 61fa adbe 706d e63e 5158 94bd
00000020: 7512 c83d de3e 4fbe aec9 8bbd e245 4c3e
00000030: 83c3 0e3e ca28 143d b9c6 cfbe 4c36 a23d
00000040: 8dff 663d 4c09 98bc 6c4b 153e 12a0 4b3d
00000050: 73d5 a73e be39 6a3c f8b1 5abd a838 41be
00000060: 7903 d8bd c4af 083e 6c18 c2bd bcbd 29bc
00000070: 61c1 c6bd 77c9 11be d32a e53e 2522 033e
00000080: c3dd 873d cfb9 bcbc 73db dcbb feb2 54bc
00000090: b3e6 19bd 7db0 3dbd b3de 243f 29ae 223d
000000a0: bf49 98be 5ced 28be 2352 fc3d 0900 853e
000000b0: 6ecb a5bd c925 ac3a 47f0 f3bc 5dde 913e
000000c0: c5ef 67be fa0d 2c3e 5a4c cf3d 3c9b 7c3e
000000d0: eb36 0cbc d9b4 073e c11e 733a e6b7 a23e
000000e0: 66bc 88be 986a 5f3e 748e 7a3e 78bf 81bd
000000f0: 2f58 7c3e 87e7 adbe ae98 7abe 591a 9c3d
00000100: fd8e d63d efa1 9e3e 0295 b8bd d46d ee3c
00000110: f17c 4f3d b9d9 713c 1c10 79be 7d47 82bd
00000120: 0273 5c3e 0420 d8bd de72 e43e 9bc3 04be
00000130: 3a38 79be 8d3d 89be 9d3f a53e a793 1f3e
00000140: 154b a43e 2eee 873b d9bf 36ba 0b22 f4bb
00000150: c214 f03d 9d3e c73e 3203 563d 0873 533e
00000160: 699c ff3d 7028 27be effd 2ebe 8819 efba
00000170: d299 ce3d c331 8dbe 9e23 5abe d8ac a4bd
00000180: 7ee0 6c3d d6b9 a73e 9891 973c b3cf ba3d
00000190: 9807 783e 9b01 c6be e95b 43be 5bef 283e
000001a0: cb38 0a3d 67c1 98bd 33de 51be 631a 95be
000001b0: 019b a6bd 6db3 ee3e 7bcd cf3d b4fd 0b3e
000001c0: ddda b7be 81f3 19be 4a0b 893b 0cbf f4bb
000001d0: 8096 653e 379c 89bd 9c4a d0be 6ca8 463d
000001e0: 7a6a eb3e 83ce 10bd 52a5 bd3e 76b4 3cbe
000001f0: cb4b a9bd 4ac6 13be 55f4 553e a28b 893e
00000200: a42c 913d 0b7b c13e 4849 cbbd 3dd7 e43c
00000210: 4f52 84be fbbb cc3e f474 6a3c 5666 33be
00000220: c19d 8f3e c5b8 be3e 9d39 c5bd 60e0 a83d
00000230: 70bf d93d c50d 5a3c ed45 cd3e 998a 75bd
00000240: e1b5 403e 6ef0 993e 9f5d c03e dfb5 87bb
00000250: 1619 9e3b e8f5 8e3a 2719 943c 4632 8f3e
00000260: b220 c7bd 4d7d 91bd 1471 f93c 991b 053d
00000270: fc6c 953e 8bff 3dbe 1272 86bd edb7 093e
00000280: f1fd cd3e a058 debc e7b2 e5bc a6db 643d
00000290: 2f42 83bd d779 96be 2a94 47be 4a15 e83d
000002a0: 1a4e 69be 4a68 863e 7a6b 113d f763 0dbd
000002b0: 3842 b1be 0f9a a03e dc43 84be f151 833e
000002c0: b85a 72be 5cb7 e9bd 6d63 75be a897 053e
000002d0: 7b23 3dbe dcd3 8f3e 97e3 56bc 4695 b4be
000002e0: 8290 9b3d 9548 953e f5be 89be 819d 3f3e
000002f0: 4133 133e d4e8 bcbe 7131 1bbe 996e 88be
00000300: 1296 bd3e f6df 9abe d4c7 3dbe b3fa a83d
00000310: 7c95 4dbe 5d8e a13a cafd 223e 26dc 6f3d
00000320: de95 15be 2837 bd3e fe02 983c 121b dfbd
00000330: e066 263e a5da bb3e 00dc 47bd 380a 893d
00000340: d0b1 b83e 49e1 713e a209 81bb 72db febd
00000350: af97 1c3d 81b8 c6be 67cd e73d b56b fabc
00000360: 170a 133c c253 6a3e 5c52 973e 5f6b 683d
00000370: 4ab3 b33e 813f 093e d32b 3f3e 1704 913e
00000380: 89a0 de3d d40b 223e fc8e c7bc 87df 19bd
00000390: 11f1 c53e a25b 69be a13a 99be 9bcb f3bc
000003a0: 6f71 97be de93 9ebd 8429 abbc ab3d 373c
000003b0: 5800 9c3b a435 34be 5565 183f d710 bb3c
000003c0: 2cbc 883c 59a6 ecbd a0a5 86bd 5bec 89be
000003d0: 95b4 c33d ab0f 2dbe 84dc 39be 79bf 1cbe
000003e0: 9ab2 3c3e 9b6c 64be fe84 e13a c361 9a3c
000003f0: 4da2 193e b59f 323e 1ebd 2ebe 37d6 efbc
0.09457757 0.28335428 -0.21848895 -0.003510162 0.016941646 -0.33980086 0.4500537 -0.072434075
0.097691454 -0.20238826 -0.06825577 0.19948533 0.1394177 0.036171712 -0.405813 0.079205126
0.056396056 -0.01855912 0.14579552 0.0497132 0.32780036 0.014295993 -0.05339238 -0.18869269
-0.10547537 0.133483 -0.09477314 -0.010360178 -0.09704853 -0.14237009 0.44759235 0.12805994
0.066340946 -0.02303782 -0.0067400276 -0.012982128 -0.037573528 -0.04631089 0.6440231 0.039716873
-0.29743764 -0.16496795 0.12320354 0.2597659 -0.08095442 0.001313382 -0.02977766 0.28489962
-0.22650059 0.16802207 0.10121985 0.24668592 -0.008558015 0.13252582 0.0009274297 0.31780928
-0.26706237 0.21818006 0.24468404 -0.06335348 0.24643014 -0.33965704 -0.24472305 0.07622213
0.104764916 0.3098292 -0.09012796 0.029105105 0.050656263 0.014761382 -0.24322551 -0.063612916
0.21528247 -0.105529815 0.44618887 -0.12965243 -0.24337855 -0.26804772 0.32275096 0.15583669
0.32088533 0.0041482663 -0.00069713366 -0.0074503473 0.11722709 0.38914958 0.05224914 0.2064935
0.12481005 -0.1632402 -0.17089055 -0.0018241862 0.10087933 -0.27577028 -0.2130265 -0.0804078
0.05783128 0.3275897 0.018502042 0.09121647 0.24221647 -0.386731 -0.1907803 0.16497557
0.03374557 -0.074587636 -0.20494919 -0.29121694 -0.081350334 0.46621266 0.10146614 0.13670999
-0.35909167 -0.15034296 0.004182254 -0.0074690636 0.22420692 -0.06719249 -0.40681922 0.048500463
0.45979673 -0.035353195 0.37040192 -0.18428215 -0.082664095 -0.1443111 0.20893987 0.26864344
0.07088593 0.37789187 -0.09926087 0.027934665 -0.25844046 0.39987168 0.01431011 -0.17519507
0.28050044 0.37250343 -0.096301295 0.08245921 0.10632217 0.013308947 0.40092412 -0.05994663
0.18819381 0.30066246 0.37571427 -0.004141554 0.004824768 0.0010907026 0.0180784 0.27968043
-0.09723033 -0.07103977 0.030449428 0.032497022 0.2918471 -0.18554513 -0.06564726 0.13449068
0.40232804 -0.027141869 -0.028039409 0.055873536 -0.06409108 -0.2938983 -0.19490114 0.113321856
-0.227837 0.2625144 0.03550289 -0.034519162 -0.34620833 0.31367537 -0.25833023 0.25648454
-0.23667419 -0.11411926 -0.23963709 0.13046134 -0.18470566 0.28091323 -0.013115785 -0.35270137
0.07595922 0.29156938 -0.269035 0.18712427 0.1437502 -0.36896384 -0.15155579 -0.2664688
0.37028557 -0.30248994 -0.1853326 0.08250942 -0.20076555 0.0012325753 0.15917125 0.05855956
-0.14607951 0.36956143 0.018556114 -0.10893835 0.16250181 0.3669025 -0.048793793 0.06691402
0.3607316 0.23621096 -0.003937916 -0.124441996 0.038230594 -0.3881264 0.11318474 -0.030568937
0.008974574 0.22883514 0.29555023 0.056743022 0.35097724 0.13403131 0.18669061 0.28323433
0.108704634 0.15824825 -0.024360172 -0.037566688 0.38660482 -0.22788861 -0.29927543 -0.029760173
-0.2957873 -0.07743047 -0.02089382 0.011184136 0.004760783 -0.17598587 0.5952962 0.022835178
0.01669129 -0.11555166 -0.06574559 -0.26938137 0.09555928 -0.16900508 -0.18150526 -0.15307416
0.18427506 -0.22307055 0.0017205772 0.018845445 0.15003319 0.17443736 -0.1706433 -0.02927695

bias f4 [200]
00000000: 9798 243d 1acf dfbd e7a3 8ebd f670 f3be
00000010: af47 a7bd fb9e 803d 3317 edbe 086a 8abe
00000020: 11ef b9be 663c e73d 573b 29be 7c94 85be
00000030: 35db 7a3e 7444 683e 6a53 a13e a999 8bbe
00000040: cec8 aebe 905a e2be 3d21 d7bd c6c1 a1be
00000050: 1523 873e e4a6 963d bc7f 9cbe a973 8f3e
00000060: 0dbb 893e e3e3 93bd 5e73 8f3e 1b54 633e
00000070: 9f45 893e a836 59bd 7997 0bbe 8e7e bcbe
00000080: c711 253e 8be7 6e3e ad47 9ebe 1037 ac3e
00000090: 98d0 11be d1aa 753e e221 773e 506e 173e
000000a0: 5be9 febd cae9 4ebd 40a1 b2be d23d 733e
000000b0: 8424 3fbe ecac 15be f24c c8be acfb aebe
000000c0: fe7f cf3d 1452 1c3e 7591 363e 47a8 94be
000000d0: 9511 cebe f14f 4cbe 625e 0c3e 264f 05be
000000e0: 37e3 793e 6d0b 7a3d 81c5 ba3e da9e 9c3e
000000f0: 4029 5e3e 60ef 75bd cd6e 133e 5cf9 8fbe
00000100: 1fa8 bbbd c2eb ac3d 6526 e5bd 4e60 b43d
00000110: 3eb3 a53e dc53 9cbe fa66 9c3d 0ace ffbd
00000120: 4417 293e 48e2 c03e 9cd2 9e3e 98fa 073e
00000130: b5f6 423d 1b61 23be a147 bdbc fbdf 8a3e
00000140: 8fff debd 548c 96be 0c6c 56be 3ff1 8f3d
00000150: 7996 86be d1a2 bbbe 6cf4 bbbe cb94 063e
00000160: 5509 a4bd 5172 aabd b0e4 803e 08d5 9bbe
00000170: 0458 f33d b3c3 8c3e ef52 97be 7ad7 783e
00000180: 1c64 843e e1f6 c1bc 902c 08be f78b cb3d
00000190: f11d 4c3e 0d08 11bd 91fa b1bd ce76 953e
000001a0: 341a 6dbe 2285 72be 6655 90bc 7e59 f5bd
000001b0: 0da9 6bbe e7b5 a83e fafa a1be 3e18 08bd
000001c0: 8920 aa3d bd16 8c3e 4b41 d0bc d170 20be
000001d0: a18e 9d3d f6ef 38bd 1b55 9fbd 75b0 b13e
000001e0: a0de 2c3e 20b2 d2bb 148c aa3d 15b0 653e
000001f0: 9003 bfbe f459 bd3d 1c66 f3bd 3870 233e
00000200: 9a87 80bd c28b 4b3e ca7d 6d3c 7e6d 433c
00000210: 3cb2 9e3e 60fc 8c3d 755d 823e f98f b93e
00000220: cc90 5cbe 759e a03e c2a7 733e b610 07be
00000230: 3109 46be 712b bfbb 8b86 b0be 878f e2bd
00000240: 81ff a23e 31e4 4abd 1e35 94be 3ec3 bc3b
00000250: ba49 65be 6d0c 0f3e 627e 72be 6f8f acbe
00000260: 0c57 2a3e 0543 2e3e a010 8bbe fa5f 0cbd
00000270: 599c e83c 1d7b 4a3e cb73 7ebe a522 c7bd
00000280: c19f 9ebe 8317 8e3e ea62 d5be 7662 653e
00000290: 32db adbd c09e eb3d 8d36 8cbd 28bd 9ebd
000002a0: 59f7 803e 6332 5abe 6924 843e 99fe 5a3d
000002b0: 0c17 293e e2bd 45bd 559f ea3d 4fe4 56be
000002c0: aa59 bbbe f801 d0bd f9db 783d 54a1 a83d
000002d0: 28a3 70be 72e6 20be 6a51 d8bd 7b12 6f3e
000002e0: e1a6 cfbd f6a0 49be 9f10 263d 8f3b e4be
000002f0: 1668 063e 7612 b4be 8edf 90be a0fa ab3e
00000300: b879 693e 3415 003d 2286 b23e bb2c d3be
00000310: 7d22 28be 827f 943e 3325 8dbd d1b0 f1bd
0.040184584 -0.10928173 -0.06964856 -0.4754712 -0.081679694 0.06280323 -0.46306762 -0.2703402
-0.36315206 0.11290817 -0.16526543 -0.26089847 0.24497683 0.22682363 0.31508952 -0.2726567
-0.34137577 -0.4420972 -0.105043866 -0.3159315 0.26393953 0.073560506 -0.30566204 0.2801793
0.2690052 -0.072212 0.28017706 0.22200052 0.2681093 -0.05303064 -0.13632001 -0.36815304
0.16120063 0.23330514 -0.3091406 0.3363576 -0.14239728 0.23990943 0.24134019 0.14788175
-0.12446853 -0.050515927 -0.3488865 0.23754051 -0.18666273 -0.14616746 -0.39121205 -0.34176385
0.101318344 0.15265685 0.17828925 -0.29034635 -0.4024779 -0.1995237 0.13707879 -0.13018474
0.24403082 0.061046053 0.3647881 0.30589944 0.21695423 -0.06004274 0.14397736 -0.28119934
-0.09162926 0.08443405 -0.11188964 0.08807431 0.32363313 -0.3053273 0.07636829 -0.12490471
0.16512781 0.3767264 0.31020057 0.13279188 0.04759856 -0.15955012 -0.023105444 0.2712401
-0.10888588 -0.29403937 -0.20939654 0.07028436 -0.26286677 -0.36647657 -0.36709917 0.13142698
-0.080095924 -0.083225854 0.25174475 -0.30435967 0.11882022 0.27493057 -0.2955546 0.24300948
0.25857627 -0.023677291 -0.13298249 0.099388056 0.19933297 -0.03540807 -0.0869037 0.29192203
-0.23154527 -0.23683599 -0.017618846 -0.1197996 -0.23013707 0.3295128 -0.31636792 -0.033226244
0.08306987 0.27361098 -0.02542176 -0.15668036 0.0769322 -0.04515072 -0.077799045 0.3470494
0.168818 -0.0064299256 0.08327499 0.22430451 -0.37307405 0.09245673 -0.1188471 0.15960777
-0.06275864 0.19877532 0.0144953225 0.01192796 0.30995357 0.06884074 0.25461927 0.36242655
-0.2153961 0.31370893 0.23794463 -0.13189968 -0.19339444 -0.005834036 -0.34477648 -0.11062532
0.3183556 -0.049534027 -0.28946775 0.0057605794 -0.22391406 0.13969584 -0.23681024 -0.3370318
0.16634768 0.17017753 -0.2716112 -0.034271218 0.028394865 0.19773526 -0.24848859 -0.09723405
-0.30981258 0.27752313 -0.41677028 0.22400841 -0.08489074 0.115048885 -0.06846342 -0.077509224
0.2518871 -0.21308284 0.2580903 0.05346546 0.16512698 -0.04827679 0.114561714 -0.2098553
-0.36591846 -0.101566255 0.060756657 0.08233896 -0.23499739 -0.15712908 -0.105624035 0.23346893
-0.101392515 -0.19690308 0.040543195 -0.4457669 0.13125643 -0.35170335 -0.2829556 0.3358965
0.22800338 0.03127022 0.3486796 -0.41245064 -0.16419406 0.2900353 -0.06891861 -0.11801303

weight f4 [200]
00000000: 7c33 803f e95f 7a3f e89f 7e3f 7597 8c3f
00000010: 47a7 933f 0201 663f ab38 773f 0b5e 843f
00000020: e816 823f d602 7e3f 9f37 823f 2e77 773f
00000030: 0ef7 813f 30ab 693f a1e1 763f fd4d 7f3f
00000040: 67f4 793f 0e65 793f 9fed 733f 77b1 883f
00000050: 0f9e 7f3f d668 803f ced7 723f 1d20 723f
00000060: 6f39 6b3f 70ce 7f3f fd84 803f 20ba 6c3f
00000070: 58e6 7a3f 0474 863f ec34 753f 1f4d 863f
00000080: a246 863f 42d5 7d3f 76e7 733f 0d1c 693f
00000090: 2a3c 883f b47d 713f fc89 693f c19e 783f
000000a0: 95a5 6f3f 5dd6 6b3f 440c 783f daf0 6c3f
000000b0: 92e4 7b3f 7f9c 773f 71e9 853f 4fb5 813f
000000c0: 0fe5 723f ca96 723f 6948 823f eee2 903f
000000d0: 4573 853f fb1a 883f 0168 6e3f a5f2 813f
000000e0: 1ce6 813f 07d8 803f bce3 6b3f 9ddb 763f
000000f0: 5672 7d3f bb77 903f 3461 703f 8979 823f
00000100: 5d0a 783f 97fd 743f 3923 8f3f 98f1 7f3f
00000110: 2c14 823f 001c 803f 9ee2 753f 1f60 7b3f
00000120: b7bb 763f 0895 713f fc6a 813f b4f6 893f
00000130: 6451 783f cbe5 803f b913 843f 347e 653f
00000140: 17c1 7f3f cf72 8f3f d5c1 753f e605 7c3f
00000150: 5bc3 803f 1e73 8c3f 5e6c 8c3f 7e57 853f
00000160: 5200 723f 1bc4 8a3f 1d03 733f 1a70 833f
00000170: 7546 873f 356a 763f 7648 793f ba27 713f
00000180: 1d70 733f d818 653f 4e40 683f cbd0 883f
00000190: 4ec6 713f 436f 7e3f ef75 7e3f 38a4 6f3f
000001a0: 329c 853f c921 743f ff1b 803f 2aff 823f
000001b0: 4fee 753f b3b9 6d3f 2eaa 873f ae2c 843f
000001c0: bcee 783f 6b55 6d3f d1e8 733f 4cfb 813f
000001d0: 4fcb 8a3f e31c 833f 1762 6d3f 0e73 7b3f
000001e0: f9f5 743f 637f 693f 21e2 7d3f 022f 823f
000001f0: e94e 8f3f 9cf7 7a3f c68b 743f 7d05 763f
00000200: 9311 813f 49a3 703f e20b 753f b2f9 793f
00000210: 78c3 6d3f 5986 7f3f 69f1 6d3f 9668 663f
00000220: eafc 723f eb4a 693f 5ea4 6f3f 9959 813f
00000230: c23c 813f 2823 873f 9890 783f ef16 733f
00000240: a297 7d3f d915 743f 7116 843f b0c9 823f
00000250: 93bd 9a3f c1af 6d3f 2403 723f 61c5 7f3f
00000260: 3643 673f 1bd6 6c3f 3898 723f 4bae 6e3f
00000270: 42bd 713f 8d42 7a3f 2cc4 7b3f 032c 833f
00000280: 247f 7f3f 5035 7c3f c5ed 6f3f 8e1e 753f
00000290: 396a 7e3f 4ef2 7e3f 5449 733f c780 7f3f
000002a0: 0d91 753f 28a3 803f 58d9 793f 565c 843f
000002b0: e505 833f 00b0 873f 47e4 703f ed44 793f
000002c0: 2e97 883f 30a4 6f3f 69b7 823f 2ebb 7a3f
000002d0: 125e 863f b8f1 703f 93e1 6d3f 5cdb 7b3f
000002e0: cbff 7b3f 5cd6 733f 572b 633f 387b 793f
000002f0: 34c8 823f 0097 8c3f 1375 833f dcde 6e3f
00000300: 67aa 823f 6843 7f3f 0d00 663f 3149 863f
00000310: 3456 7b3f db42 723f 52b0 703f 7c74 673f
1.0015712 0.978026 0.9946275 1.0983721 1.1535424 0.8984529 0.96570843 1.03412
1.016324 0.9922308 1.0173224 0.9666623 1.015352 0.91276836 0.9643803 0.99728376
0.97638553 0.9741982 0.95284456 1.0679158 0.99850553 1.0031993 0.9486054 0.9458025
0.9188451 0.99924374 1.0040585 0.92471504 0.98007727 1.0504155 0.9578388 1.0492285
1.0490305 0.9915353 0.95275056 0.9105843 1.0643361 0.9433243 0.9122617 0.9711724
0.93612033 0.9212397 0.96893716 0.9255501 0.98395646 0.9672317 1.0461866 1.0133456
0.94880766 0.94761336 1.0178348 1.1319253 1.0425802 1.0633234 0.9312745 1.0152174
1.0148349 1.0065926 0.9214437 0.96428853 0.9900259 1.1286539 0.9389832 1.019334
0.96890813 0.9569945 1.1182624 0.9997802 1.0162406 1.0008545 0.96048915 0.98193544
0.9638018 0.9436803 1.0110774 1.0778413 0.9699919 1.0070127 1.0318519 0.89645696
0.99904007 1.1206912 0.9599889 0.984465 1.0059618 1.0972631 1.0970571 1.0417325
0.9453174 1.0841097 0.94926625 1.0268586 1.0568377 0.9625581 0.9737619 0.9420124
0.95092946 0.89491034 0.9072312 1.0688719 0.94443214 0.9938852 0.993987 0.9360995
1.0438292 0.9536405 1.0008544 1.023412 0.96066755 0.9286148 1.059881 1.0326135
0.9723928 0.9270846 0.95277125 1.0154815 1.0843295 1.024319 0.927278 0.98222435
0.95687824 0.9121 0.9917317 1.0170596 1.1195956 0.9803407 0.9552578 0.96102124
1.0083488 0.93999153 0.95721257 0.9764663 0.92876387 0.99814373 0.9294649 0.90003335
0.94917166 0.9112994 0.9361018 1.0105468 1.0096667 1.0557604 0.9709563 0.9495687
0.990595 0.95345837 1.0319349 1.02178 1.2089103 0.92846304 0.9453604 0.9991055
0.9033693 0.925142 0.9476352 0.932347 0.9442941 0.977578 0.9834621 1.0247806
0.99803376 0.9851885 0.9372218 0.9574975 0.9938083 0.9958848 0.95033765 0.99805874
0.95924455 1.0049791 0.97597265 1.0340679 1.0236174 1.0600586 0.94098324 0.973708
1.0671136 0.93609905 1.0212222 0.97941864 1.0497458 0.94118834 0.92922324 0.9838159
0.98437184 0.9524896 0.88738006 0.9745364 1.0217347 1.0983582 1.0270103 0.93308806
1.0208253 0.9971223 0.8984383 1.0491086 0.9817841 0.94633263 0.94019043 0.90412116

bias f4 [200]
00000000: 5669 9bbd d544 333e 8cc0 073d 2e80 ffbc
00000010: e65f b23c e4c7 04bc 552f 393d 0be4 373c
00000020: 73b3 213e f691 6b3d e30e e23c 7336 843c
00000030: 07cb 4d3c 04c1 83bd 0077 f93d afd7 7638
00000040: ad78 303d 5b7a 623d 112c 9e3d f86a 393c
00000050: 43d9 c23d 4f2d a43d bbe3 873d da5d 42bd
00000060: 6127 653d 2379 e63d 699c 3a3d 5b41 40bd
00000070: d147 e93c 9d9f b2bd dc70 e9bc 8bec 643e
00000080: 361c 5b3e d2e3 a4bb f6ba a33d 3d22 e3bd
00000090: 15ed 96bb 44f0 783d 2c61 863d 4851 ecbb
000000a0: 96ee 873c 93a7 11bd 1e88 a03d 7c2b f2bb
000000b0: 4b4f 5abd 8724 15bd d023 0c3e 7c64 ef3d
000000c0: f4c2 653d a1ee 82bd ad4a b7bc 9cc0 9b3d
000000d0: 2cd7 54bd 4d25 98bd d0c5 9bbd 8572 e13d
000000e0: f443 72bd ebb0 6bbc 41d2 d13d 368d 66bb
000000f0: 0dd7 343d 22e3 c6bd 2e26 84bb 6ed5 b2bb
00000100: 2862 d73b df2b f03d a0b8 babc a40c b1bc
00000110: 6237 1ebd d3af b9bc 2b12 77bc f814 123d
00000120: 31ac ce3d 2205 deba 687a 7abd 6e19 3abd
00000130: 2bf9 173e e333 003e e02d 4b3c 2fd9 653c
00000140: 87ab 143d 07fe 923d 48d6 0a3e 175f 623d
00000150: 69a2 cb3d b814 01bb 5fb5 9fbc 7a2d 23be
00000160: 2769 2e3d 0520 85bc a7f0 e4bc b0be bb3d
00000170: 94cf 23bc 33d1 2c3e 5c06 1f3d 0d9e 96bd
00000180: 7676 5bbd 1154 b93c c8e9 c437 5534 bd3d
00000190: d419 bdbc 53f2 5dbc 9738 043e e8c3 d2bc
000001a0: c965 87bc 1c27 bdbb 46d9 88bd 0068 583c
000001b0: 5e6d 58bd c047 09bd 8c89 513e 1607 1a3d
000001c0: 66aa b43d f5d1 ae3c 085b 1a3d 5196 743d
000001d0: 1514 73be 10b0 2cbc cf84 853d 7cb6 d4bc
000001e0: 82ba e5bd 0673 09bd ce5b 303e caea 92bc
000001f0: b474 133d 3565 423d dc03 e3bc 5198 ddbc
00000200: 1445 0ebd adf0 ea3c f42b 9c3d 2afc 1d3e
00000210: 8e9b f53d 5c3e 62bd ede3 543d 8990 32be
00000220: 33e0 093e 0a01 b7bd fdb8 ec3d 04f0 213e
00000230: ca09 b13d c3bb a7bc 6240 aabd 5b89 10bd
00000240: e57d 133c 308a f13d 73a6 65bd 1bc8 ef3d
00000250: 60e4 b9bd 654a 5e3b 0a4e 003c b22c 1d3e
00000260: 60b2 843c b100 4a3d 9a7c 9ebd 5f10 bf3d
00000270: ed88 a6bd 12cd 383e c51f 633d 0196 5fbd
00000280: b028 1ebd 5671 cbbc 912e cbbd 2ac7 543d
00000290: bc50 0d3e 0e3e 54bd ab56 42bd 4ed2 0c3d
000002a0: 554d 803d 757a 2abd 04a1 033d 21c5 a73d
000002b0: 3c0a 9e3d 9a34 403d 9f0c 4fbd 2516 28bc
000002c0: f64f 0cbd 9fd3 8a3d 9a34 33bb 5ee4 abbd
000002d0: 01ce 57bd a944 74bd 0ecb 143e e424 493d
000002e0: 6b97 8f3d 9cb9 b33d aba3 813d 9d9f 2c3e
000002f0: b773 013e 1711 223d 8ae5 4a3e db1d 0b3e
00000300: f03b 8ebb c5ba fe3d 296f 06bd 7310 15bd
00000310: 075a e3bc 40a8 ed3c ba56 803d bbc4 70bc
-0.075884506 0.17506726 0.03314261 -0.03118905 0.021774244 -0.008104298 0.045211155 0.011223803
0.1579111 0.057512246 0.02759499 0.016139245 0.0125606125 -0.06433299 0.121809006 5.885184e-05
0.043083835 0.05529247 0.07723249 0.011317007 0.09514096 0.080164544 0.06635233 -0.047452785
0.055945758 0.11253574 0.04555932 -0.046937328 0.028476628 -0.0872185 -0.028496198 0.22355859
0.2139748 -0.005032041 0.07994644 -0.11090515 -0.004605899 0.06077601 0.06561503 -0.007211838
0.016593259 -0.0355602 0.07838462 -0.0073904376 -0.053298276 -0.03641179 0.13685536 0.11689088
0.056094125 -0.06393171 -0.022374475 0.07605097 -0.051963016 -0.074289896 -0.07606089 0.11008171
-0.059146836 -0.014385442 0.10245181 -0.0035179383 0.0441504 -0.09711291 -0.0040328717 -0.0054575717
0.0065729804 0.11727118 -0.022793114 -0.021612473 -0.038627036 -0.022666847 -0.015080015 0.03566453
0.10091437 -0.0016938786 -0.061151892 -0.045434408 0.14841144 0.12519793 0.012401074 0.014028831
0.036296394 0.07177358 0.13558304 0.055266466 0.09943087 -0.0019696187 -0.019495664 -0.15935317
0.04258075 -0.01625062 -0.027946783 0.0916723 -0.009998221 0.16876678 0.038824424 -0.073543645
-0.05357977 0.022623094 2.3473884e-05 0.09238497 -0.023083605 -0.013546544 0.12912212 -0.025728181
-0.016528027 -0.0057724845 -0.066820666 0.013208389 -0.052838676 -0.03351569 0.20462626 0.037604414
0.088215634 0.02134035 0.03768447 0.059713665 -0.2373813 -0.010540023 0.06519472 -0.025965922
-0.11217214 -0.03355696 0.1722252 -0.017934222 0.03599997 0.0474598 -0.027711801 -0.02705017
-0.034733847 0.028679216 0.07625571 0.15428224 0.1199256 -0.05523525 0.05197518 -0.17437948
0.13464431 -0.08935745 0.11558721 0.15814215 0.08644445 -0.020475274 -0.08313061 -0.035287242
0.009002184 0.11793935 -0.05606694 0.11708089 -0.09076762 0.0033918854 0.007831106 0.15349081
0.016198337 0.049317066 -0.077386096 0.093292944 -0.08131585 0.18046978 0.05545022 -0.054586414
-0.03861302 -0.024834316 -0.09920991 0.05194775 0.13800329 -0.051816992 -0.047445934 0.03438025
0.0626475 -0.04162069 0.03213598 0.08191896 0.07716796 0.046925165 -0.050549146 -0.010259186
-0.034255944 0.06778645 -0.0027344585 -0.08393167 -0.052686695 -0.059635792 0.14530584 0.049107447
0.070113026 0.087756366 0.06330045 0.16857763 0.12641798 0.03956708 0.19814125 0.13585608
-0.004340641 0.12437967 -0.032820854 -0.03639264 -0.02775289 0.029010892 0.06266542 -0.014695342

running_mean f4 [200]
00000000: 5266 c43e d3cf 823e c694 a93d 4049 353c
00000010: 7d3f ba3d a0e8 173e ef00 0f3c 14ff 7f3d
00000020: 1135 e83d 1041 193e d6db 5b3d 3c7d 303e
00000030: 90ab aa3e 1f4a e03e dd56 d53e 060b 243d
00000040: 288d 0c3e e2ee 073e fdbd a13d 39e4 0b3d
00000050: a47b c83e 8887 593e 9533 143e 66d4 1d3f
00000060: d6fc 063f c267 073e a79a b93e 7dce 473e
00000070: 50db da3e 6f1b c93d b430 1d3e 06e1 8c3d
00000080: 9d47 773e 083c a73e 48cd 4f3d 8126 713e
00000090: d758 c63d d5d1 003f 8a4b ae3e 7e01 ad3e
000000a0: d8ec 973e ce3d 6c3e ae48 af3d d544 3d3e
000000b0: 5da2 003e 4b48 8a3d c15e 093d c5c8 ea3d
000000c0: 8991 483e 639f c13e 01bf 283e 14dd ee3b
000000d0: e067 353d 86ad 7e3c d733 d73e 8393 a23d
000000e0: b990 4a3e bc51 d93d 4bfb 143f a537 e53e
000000f0: 9aa9 e63e d601 ce3d 2020 aa3e 80ba 2e3d
00000100: c8a3 293e dc8c 113e 7167 263d 2944 363e
00000110: bfdf a03e c906 0b3e 0f5e bb3e 81a2 e93d
00000120: b316 b43e 7549 ce3e 2a7b e93e d0ea 773e
00000130: 4d8f f73d c285 033e 31df e43c 11d5 703e
00000140: 1e3d 8c3d 77d4 023c beea 413e 1215 8a3d
00000150: a84b a63d 1325 163c 5c90 d33c f2ca 563e
00000160: e48b 993e 4f84 cb3d 98ea 863e 5741 a93d
00000170: 891a 093e fd35 873e 0a90 c23d c52d ca3e
00000180: 0465 ee3e ea4b b43d fff1 173e d85b 6c3e
00000190: e486 013f f413 623e ce0a 4a3e 5058 e03e
000001a0: d19d 183e eb95 bb3d a039 db3d 2978 6b3e
000001b0: c7c5 c13d f8dc 203f 563e a23d 33e0 4e3e
000001c0: a621 7d3e 3c51 3f3e aebb 2f3e d208 773d
000001d0: 9e94 563e 9621 dd3d aa79 ba3e fb4c e83e
000001e0: a1f8 763e 76c6 053e 6653 973e ddac a83e
000001f0: 2031 113c f4d4 8b3e 5b9c cf3d adb1 563e
00000200: 15ef bb3d fcda ac3e 6015 073e c755 823e
00000210: fbe6 9e3e 1f6e 473e 2a6b af3e 97a1 a13e
00000220: d9ee 193e 66b1 f73e 172e a83e 8a5d a73d
00000230: 0c0f 993d 5114 673e bdfe 9d3d 4fba a93d
00000240: 0162 cb3e 4f40 403e 2e44 cd3d 3096 043e
00000250: bca0 ce3b 383e 933e b4a6 b03d f832 f33d
00000260: 164c 603e 174b ae3e e696 0f3d 41d9 ba3e
00000270: 0a20 2c3e 24a5 913e 6e0a c33d 78c3 8a3d
00000280: 1726 863d e9c6 a83e 142a a13d 316b df3e
00000290: 9157 113e f8b6 023e bc43 a63d 5572 283e
000002a0: cdf0 a93e 3886 b63c bd0b b33e ec1a 883d
000002b0: e452 a13e 4222 f53d 8966 c13e 83f8 8f3d
000002c0: eaa1 ce3c f548 fa3d 1882 003e b6ca 2a3e
000002d0: 46e8 8b3d f002 253e ce66 7e3e e4ef a03e
000002e0: 9b1c b23d 1c05 1a3e 96fa cb3e 21ac 063e
000002f0: fa4a 953e 7dd9 533c 0e0a e33d f5af be3e
00000300: 3203 ba3e e8f6 6e3e 1cc3 253f 8e11 8d3c
00000310: d8c5 283e 4500 923e 2257 9c3e 7dbb c53d
0.38359314 0.25549182 0.082803294 0.011064827 0.09094141 0.14834833 0.00872825 0.06249912
0.113382466 0.14966226 0.05367645 0.17235273 0.33334017 0.4380655 0.41667834 0.040049575
0.13725722 0.1327472 0.078975655 0.034153197 0.3915683 0.21243107 0.14472802 0.6165222
0.5272955 0.13223174 0.36250803 0.19512363 0.42745447 0.09819686 0.1535061 0.06878857
0.24148412 0.32662988 0.05073288 0.23549844 0.096849136 0.5032018 0.34042007 0.337902
0.29672885 0.23070452 0.085587844 0.18483289 0.12561937 0.0675207 0.03353763 0.11464075
0.19586767 0.37816915 0.16479112 0.007289538 0.044288516 0.015544301 0.42031738 0.07938292
0.1978177 0.10611293 0.5819594 0.44769016 0.4505127 0.10058944 0.33227634 0.04265833
0.16566384 0.1421389 0.040625993 0.17799439 0.31420705 0.13576807 0.365952 0.11407948
0.35173568 0.40290418 0.4560178 0.24210668 0.12087879 0.12843993 0.027938457 0.23518778
0.06847595 0.007985226 0.18937203 0.067423 0.08119899 0.009164113 0.025825672 0.20975855
0.2998954 0.09937345 0.26350856 0.08264416 0.13389029 0.26408377 0.095001295 0.39488044
0.46561444 0.08803542 0.14838408 0.2308191 0.5059645 0.22077924 0.19730684 0.43817377
0.14903952 0.09159454 0.107043505 0.22995056 0.09461551 0.6283717 0.07922046 0.20202713
0.24719867 0.18683332 0.17161438 0.060311146 0.2095513 0.10797422 0.36420947 0.4537123
0.24118282 0.13063988 0.29555815 0.32944384 0.00886181 0.27310908 0.10137244 0.20966215
0.09176461 0.33760822 0.13191748 0.25456068 0.310356 0.19475602 0.34261447 0.31568596
0.1503252 0.48377532 0.32847664 0.08172138 0.07473573 0.22566344 0.07714603 0.08287489
0.3972321 0.18774532 0.1002277 0.12947917 0.006305782 0.28758407 0.08625546 0.11874956
0.21904024 0.34041664 0.035056017 0.36493877 0.16809097 0.28446305 0.09523474 0.06775564
0.06550234 0.32964256 0.07869354 0.43636468 0.1419356 0.1276511 0.08118388 0.16449864
0.3319153 0.022280797 0.34969893 0.0664576 0.31508553 0.11969425 0.3777354 0.07029822
0.025223691 0.12220947 0.12549627 0.1667889 0.06831412 0.16114402 0.24843904 0.31433022
0.08696862 0.15041012 0.3983962 0.131516 0.29158765 0.012930271 0.11085902 0.3724362
0.36330563 0.23336375 0.6475084 0.017220285 0.16481721 0.2851583 0.30535227 0.09654901

running_var f4 [200]
00000000: 6dc6 a03e d671 9b3e 2275 bf3c a371 903c
00000010: ecbd f03b 60e0 6c3d 824a 2b3b 7bc0 2c3e
00000020: 32af 7f3d 2f2c e13d 9936 583c e670 493e
00000030: 6732 ad3e 7dfe 323e 9ae4 b83e 65e5 d13c
00000040: 672f bf3d d791 e03d 0871 263d 4894 4d3d
00000050: eb35 693e cb51 fb3d 67c2 6d3d 81b8 f13e
00000060: 893a 4f3e 0651 873d 9d9f a33e 91e7 993d
00000070: ee34 933e ac1d 163d f91b ce3d a05c 153d
00000080: 15a5 be3d e09f 753d 6dd1 9c3c 69ff 2d3d
00000090: f34b 993d 4526 9d3e cf6d 5d3e 8f76 883e
000000a0: 5023 5f3e 82de d33d f5a8 a03d 53b8 933d
000000b0: 09b4 633e 1187 853c e1f0 bd3c 647f 7f3d
000000c0: 23ce c33d fb24 7d3e bc49 ea3d f582 813b
000000d0: 206d 213e 6d45 c23c 2c90 a73e b886 133d
000000e0: 00d6 393e c1f2 2c3d b06c c93e 4802 4d3e
000000f0: c7f5 c23e 63a3 fe3b ecdd 223e cc60 023e
00000100: 5dd2 773e 0721 d03d 8a36 893c 4872 9d3e
00000110: db4e 483e e25f 563e 61cc 2f3e 077a 893d
00000120: b9e4 8b3e 96fa 3f3e d551 953e 7665 6b3e
00000130: 70d2 cc3d fc14 243d 73c9 323d 3b36 a33d
00000140: c9a2 a33c e3fa 263a 40d9 173e db6d 4e3c
00000150: d3b1 563d 6426 383c 7d1b 4f3c 7488 8b3c
00000160: db24 f53d 9dd4 113c 0419 a73d 2ec9 8a3d
00000170: b680 a23d 984b a73d 31eb 9c3d 10fd aa3d
00000180: 7771 4e3e 9b02 a33c fae7 673d 9269 463e
00000190: e7ec 923e 0067 893e e2a9 e23d 7d93 5f3e
000001a0: 9d41 173e b3f6 013d 759e 053d 5559 793e
000001b0: 54c9 763d 2651 983e 86ba 0a3d e30a 293e
000001c0: 4b68 0a3e 55f9 063d 6db1 cb3d 637b 753c
000001d0: dbd8 8a3c 73a8 533e 9605 3d3e 2a71 6b3d
000001e0: 2511 603e 7699 3f3d 53e5 9f3e fe4a 003e
000001f0: 0f66 853c da7d 393e 4014 0d3e a9d8 b33d
00000200: f009 ca3d abe7 2b3e 6483 7e3d 1dfa 8b3e
00000210: 9198 373e 3eb0 f03d 4b4e ad3d 7d49 af3d
00000220: 09de 2b3e 3027 5c3e 1572 583e 9dff dd3c
00000230: c5a9 6f3d 10fd a83e 407e fe3c 5837 1d3d
00000240: 3cc2 9f3d ee81 b53d 13e2 913d 6d05 b13d
00000250: f7b4 5a39 548b 143e 0c73 263d b1a8 913d
00000260: e022 373d 7ea9 343e 78dc 113c a719 7d3e
00000270: d604 443d bd08 0e3e ca44 fa3c 968b 3f3d
00000280: 1e4a 353d 553c f93d e379 003d bfef 8f3e
00000290: dd2e 323e 8473 543e b235 163d 9558 593d
000002a0: 0ac9 283e 9ef1 a83b 2b31 013e d588 353c
000002b0: 4447 6e3e 3852 373c 4b8e 263e fa19 0a3c
000002c0: 84fa 5d3d 01a0 873d 0c48 0f3e 3732 443d
000002d0: 05b9 663e 7633 713d b8db 0d3e ee9d 883e
000002e0: d67f 453d cdaf 293e a1d3 5c3e 5bdd 983d
000002f0: 3f6f bb3e fbf4 863b 38ce a13d c797 a03e
00000300: c6e0 c83e e535 2d3e 565b ac3e a415 e83c
00000310: b597 923e e89c bf3d a7e1 563e f2ea ed3c
0.31401387 0.30360287 0.023371283 0.017632311 0.007346859 0.05783117 0.002613694 0.168703
0.06242294 0.109947555 0.013196611 0.19671974 0.33827516 0.17479892 0.3611191 0.02562208
0.09335213 0.10965317 0.04063514 0.05019024 0.22774474 0.1227146 0.058046725 0.47211078
0.20237173 0.06607251 0.31957713 0.07514871 0.2875132 0.03664939 0.10063929 0.036465287
0.09308831 0.05996692 0.01914283 0.042479906 0.07485189 0.3069326 0.2162392 0.26652953
0.21790814 0.10345174 0.07844726 0.072128914 0.22236647 0.016299756 0.02318615 0.06237735
0.09560802 0.24721138 0.11439845 0.003952379 0.15764284 0.023714745 0.32727182 0.03601715
0.18148041 0.042223696 0.39340734 0.20020401 0.38078138 0.007770942 0.15904969 0.12732238
0.24201341 0.101625495 0.016749639 0.30751252 0.19561331 0.20935014 0.17167808 0.06712728
0.2732294 0.18747935 0.29163995 0.22987923 0.10001075 0.040059075 0.04364915 0.07969328
0.019975083 0.00063697825 0.14828968 0.012599434 0.05241568 0.011239622 0.012640831 0.01703284
0.1196992 0.008900789 0.08159068 0.06776653 0.07934706 0.08168715 0.07662047 0.08349049
0.20160471 0.019898703 0.056617714 0.1937621 0.28696367 0.26836395 0.11067559 0.21833606
0.14771123 0.03172941 0.03262182 0.24350484 0.060250595 0.2974941 0.03386929 0.16508059
0.13516347 0.032952625 0.09945951 0.014983031 0.016949108 0.20669727 0.18459162 0.05748097
0.2188154 0.04677721 0.31229648 0.12528607 0.016284017 0.18114415 0.13777256 0.08781559
0.09865177 0.16787593 0.062137023 0.2733926 0.17929293 0.117523655 0.08462199 0.08558939
0.16783918 0.21499324 0.21137269 0.027099425 0.058511514 0.3300557 0.03106606 0.038382858
0.07800719 0.08862673 0.07123198 0.08643613 0.00020857515 0.14506274 0.04063706 0.071122535
0.044710994 0.17642781 0.0089026615 0.24716817 0.047856174 0.13870521 0.03055038 0.04676398
0.044260137 0.121697105 0.03136624 0.281126 0.1740069 0.2074719 0.0366723 0.053062994
0.1648294 0.005155756 0.12616412 0.011079987 0.23269373 0.011189036 0.16265218 0.008429045
0.05419399 0.06622315 0.13992327 0.04789945 0.22531517 0.058886968 0.13853347 0.2668299
0.048217617 0.16570969 0.21565105 0.07464095 0.36608312 0.0041185594 0.07900661 0.31365797
0.3923399 0.1691509 0.33663434 0.028330632 0.28631368 0.09356099 0.20984517 0.029042695

weight f4 [100, 200]
00000000: ad81 443c 3f08 503d c602 94bd 019e 223d
00000010: ae1b fdbc 3094 563d bc28 0cbd d685 5a3d
00000020: f404 9bbd a0bc f73c 8865 663d 0656 8b3d
00000030: dfc9 7c3d 610c 3ebd a82b 4ebd 3787 5b3d
00000040: 69c9 28bd 2ae7 95bd b31e 39bd 63d1 d33c
00000050: 5164 ea3d fc56 83bc 35c8 b13c 3870 2fbd
00000060: b09d 18bd eaae 323a e9da 593d 77c7 e3bc
00000070: 03cd e93c a0cd 6cbc 9be6 39bd 4d73 c0bc
00000080: 9083 91bd 8b2b 40bd 9270 f13c 7694 93bd
00000090: 19ff 5e3d eca7 853d d43e 153c 58e9 903d
000000a0: 8d67 d5bc 94af 65bd 8fde 35bd b1c2 143d
000000b0: ebb9 d5bb e65f 633c 5011 fdbc c9c0 36bd
000000c0: 129f 91bd 840d 253d 7429 8f3a 5b8e f83a
000000d0: 307c adbc 1ab5 bf3c 8b9c c43b 976a 9ebc
000000e0: c403 15bd 0378 1ebc 42b6 13bd 61d2 1f3d
000000f0: 2263 39bc c1a3 98bc cdaf 053d a5ef 163d
00000100: d657 043b 843d b8bc c079 22bd ea8f da3c
00000110: abf4 e63c 0252 a23b 5f7b 92bd c9d6 f73c
00000120: 802d 023d 1658 fc3c 801a 143c 1e71 e33c
00000130: fa6d cebc de13 b7bc 3431 39bd fe9d 61bd
00000140: bcb0 34bc 1223 57bd 264c 7bbc 8486 99bd
00000150: f497 5cbd 4f01 873d 16c5 503d 88b1 efbc
00000160: 24d1 3dbd 9673 21bc dbe5 c9bc e8dc 6e3d
00000170: 201f 84bc 5289 723d dcdc 5e3d 5ac8 44bd
00000180: 3b5b a23c 5462 d8bc 5f08 1e3c 98ca acbc
00000190: 25a7 a0bd ec2a a53d 8de7 54bd ae68 2ebc
000001a0: 8c49 dbbc f53b 1c3c 54e8 e0bd f34b a73c
000001b0: 6945 9e3d e448 51bd e86b 333d e908 3ebd
000001c0: 16d1 9dbd bfc0 70bd 5c07 303c e6a3 4bbd
000001d0: 583c 58bd 5947 393d 9f4f e5bc ea55 2bbd
000001e0: 288f 36bd 2383 db3b 37a8 af3c 8e02 b7bc
000001f0: d02c 873d 83e1 a33c 8495 593d 2bba 143d
00000200: 60a5 bb3d ee53 5d3d db1c 443d 1a28 06bd
00000210: 33d5 13bd e3c4 46bd 94df 423d e291 38bc
00000220: b335 2bbd 4a6a d83a 54dd e43c c362 3d3d
00000230: 10a2 223c 0e93 723b c882 a73c 8e38 2ebb
00000240: 8d5a bdbc ea5b dfbc db17 2bbd 9380 c53d
00000250: 321f b6bd 39f7 cebc 2787 7ebd b6ed 7e3c
00000260: e98a a93c 2847 21bc 4579 9c3c df17 e6bc
00000270: cf44 7cbd 6132 8c3b c96b a0bb 5bf5 8cbb
00000280: a507 8e3d 4d68 2d3d 7556 8d3c b6d2 16bc
00000290: a390 8abd 1506 c1bc 489a 26bc a1b2 bfbd
000002a0: 4928 d9bc 23cd 213d 6e4a 723d 7ea1 a3bc
000002b0: ea64 c9bb 09fb c8bc 45cf 0b3a 75de 72bc
000002c0: 19e1 ec3c f58d d7bc a8f9 0bbd 7274 f7bb
000002d0: 8a2a 29bd aee6 49bc 8195 41bd f163 08bd
000002e0: fb70 0bbc bb8d 29bd c89a b23c 099e c83b
000002f0: 5d41 5ebd 9030 1c3d f3d1 97bd b165 5fbc
00000300: 86f1 843c 0c30 103d 3f75 82bd 1e86 073d
00000310: ca16 60bc c18a 28bd fd4e 9cbc c45d 013d
00000320: 5a85 2dbc 107f a1b9 7a00 543d 971b 80bc
00000330: a661 e93c 596f 833b 4c58 57bc f103 00bd
00000340: 8349 d4bc f816 47bd 4af3 45bb f18f 9c3b
00000350: 1163 fe3c 43e8 2fbd efb3 0f3d b43a 893c
00000360: 9f1a 163c c0a5 a2bd e67a a8bd f7fa b23b
00000370: 844e c83c a4e1 ce3c 8b7e ffbd db54 e6bd
00000380: ea3c 21bd f8e1 9b3b 6406 5dbd e718 ebbc
00000390: e6f4 6f3b 29ae 453d 45f4 9cbb f7dd a03c
000003a0: e616 4c3d 0ce4 52bd aea3 fbbc 2568 1937
000003b0: a010 edbd c486 0bbd 4746 5a3d ca09 5e3c
000003c0: bf50 b63c abad 8c3c 1e40 2fbd 1745 c8bc
000003d0: bfd3 1e3c 405d 203c 8a78 14bd d789 2abc
000003e0: db08 aebc 35a5 e53b d44c b5bd 18fe 94bd
000003f0: f062 abbc 75be 983d e827 303c a111 8a3c
0.011993808 0.050789114 -0.072270915 0.039701466 -0.030896988 0.052387416 -0.034218535 0.053350292
-0.07569304 0.03024131 0.05624917 0.06803517 0.061715957 -0.046398524 -0.050334603 0.053595748
-0.041207705 -0.07319482 -0.045195293 0.02585668 0.11444915 -0.016032688 0.021701911 -0.04283163
-0.037259758 0.00068162254 0.053187285 -0.027805073 0.02854014 -0.014453322 -0.04538594 -0.02349248
-0.07105172 -0.046916526 0.029472623 -0.07206051 0.0544425 0.06526169 0.009109218 0.07075757
-0.026050353 -0.056075647 -0.0444017 0.036318485 -0.0065224073 0.013877844 -0.030892044 -0.044617448
-0.071104184 0.040296093 0.0010922388 0.0018963324 -0.021177381 0.023401786 0.0060001067 -0.019337935
-0.036380544 -0.009672168 -0.036062486 0.039018992 -0.011315139 -0.018632771 0.03263836 0.036849637
0.0020193956 -0.02249027 -0.03966689 0.026679952 0.028192839 0.0049536237 -0.071524374 0.030253785
0.031781673 0.030803721 0.009039521 0.0277639 -0.025198925 -0.02234834 -0.04521294 -0.055082314
-0.011028465 -0.05252368 -0.015337979 -0.0749636 -0.05385585 0.065920465 0.050969206 -0.029259458
-0.04634203 -0.009854218 -0.024645736 0.05831614 -0.016128123 0.05921299 0.054409847 -0.048042633
0.019818893 -0.026414074 0.0096455505 -0.021092698 -0.0784438 0.08064827 -0.051978637 -0.010645075
-0.026768468 0.009535779 -0.10981813 0.020421958 0.07728083 -0.051094905 0.04380408 -0.046395216
-0.077058956 -0.058777567 0.010743942 -0.049716853 -0.052791923 0.045234058 -0.027992068 -0.04182998
-0.04457012 0.0066989823 0.021442516 -0.022340085 0.06600344 0.020004993 0.053121105 0.036310356
0.09162402 0.05403512 0.04787908 -0.032753088 -0.036091994 -0.04852761 0.047576502 -0.01126525
-0.04179926 0.0016511169 0.027937569 0.046236765 0.009926334 0.003701392 0.020448104 -0.0026584002
-0.023114467 -0.027265508 -0.041770797 0.09643664 -0.08892669 -0.02526437 -0.06214061 0.015559604
0.02069612 -0.009843625 0.019100795 -0.028087554 -0.06158906 0.0042784666 -0.0048956615 -0.0043017096
0.06935052 0.042335797 0.01725314 -0.009205511 -0.067658685 -0.02356247 -0.010168619 -0.09360243
-0.026508467 0.039502274 0.059153013 -0.019974466 -0.006146063 -0.024533765 0.0005333315 -0.014823546
0.028915929 -0.026312808 -0.034173638 -0.007551723 -0.041300334 -0.012323065 -0.04726172 -0.033298437
-0.008510823 -0.04139493 0.021802321 0.006122355 -0.054261554 0.03813225 -0.074130915 -0.013635085
0.016228449 0.03520207 -0.06370019 0.03308689 -0.013677308 -0.04114795 -0.019080633 0.031583562
-0.0105908755 -0.00030802982 0.051758267 -0.015638156 0.028488945 0.0040110764 -0.01314361 -0.03125376
-0.02591396 -0.04860589 -0.0030204826 0.0047779013 0.031053098 -0.04294611 0.035083707 0.016751625
0.00916162 -0.079417706 -0.08226566 0.0054620462 0.024451502 0.025254078 -0.12475308 -0.11246654
-0.039364733 0.004757162 -0.053961173 -0.028698398 0.0036614477 0.048261795 -0.0047898614 0.019637091
0.049826525 -0.051487014 -0.030717697 9.143759e-06 -0.115754366 -0.03406407 0.053289678 0.013552139
0.0222553 0.017172655 -0.042785756 -0.024447007 0.009694039 0.0097878575 -0.036247768 -0.01040884
-0.021244457 0.0070082196 -0.088525444 -0.07275027 -0.0209212 0.07458202 0.010751702 0.01685411

bias f4 [100]
00000000: 4a61 bebd 3633 46bd d398 89be 8517 6dbd
00000010: 1cba c5bc 0940 983b bab7 01be 032e c53d
00000020: afee 8bbd 82ae 9f3b 0743 47bd a9f3 6e3d
00000030: a9ec 51bd 1273 72bd 4445 d63c bc8a 0abe
00000040: 67ad 66bd 5aa2 8cbd c4ba 973d 9bd1 f8bd
00000050: 9d32 023c 9652 863d 927d c93d f477 3a3d
00000060: faea 92bc 72d9 773a 899d 4dbd c995 153c
00000070: 81eb c1bc 280d adbd 48e3 f0bd e78f dcbd
00000080: c976 24bd eaa9 d63c 2ed2 9ebd 9beb 83bc
00000090: 66c1 503d d530 4cbd bf7b 443c c90a 7b3c
000000a0: e8ea d4bd cd66 2d3d 9f11 c0bd d0fa 18be
000000b0: 930f a63c db52 81bd aebd 62bd 54f1 96bd
000000c0: 32b7 73bd 90e7 113d a7c1 823d c427 15be
000000d0: 64d0 24be 10f3 93bd aa9c 26bd 1ec3 613d
000000e0: 60b9 acbd e483 2bbe e742 ce3c d4b1 e2bd
000000f0: 7c80 e5bd eec2 77bd 24a3 b63d 10ea b2bc
00000100: ada2 c13c aecf 813d 683c 8bbd be8c 9dbd
00000110: fc5e 85bd 5f7e f1bd 97ef 9bbd 3e50 a4bd
00000120: 8c57 bf3b da98 fbbd 1b73 e93c a7b5 afbc
00000130: 8c94 04be 66d9 ed3c 780d b3bd 8e48 a43c
00000140: 209f 08b7 6fa1 20be 7721 4ebe cf87 843d
00000150: 2100 223d 837a 89bd 8f22 ae3d dcc7 ecbd
00000160: 7127 91bd c539 513d d481 a8bd ab8a 293d
00000170: 6e3d 0c3c 4959 ccbd 6e99 d7bd 3d5b cd3d
00000180: dcbc 333d a561 73bd 8bb0 1d3d 4c83 82bd
-0.092959 -0.048388682 -0.26874408 -0.057883758 -0.024136595 0.0046463055 -0.12667742 0.09627917
-0.06832635 0.004873098 -0.048647907 0.05833784 -0.051251087 -0.05919177 0.026156075 -0.13529485
-0.056317713 -0.068669036 0.074086696 -0.12149354 0.007946637 0.06558721 0.09838404 0.045524552
-0.017934311 0.0009454704 -0.050199065 0.00912995 -0.023671867 -0.08449775 -0.117621005 -0.10769635
-0.040152345 0.026204068 -0.07754932 -0.016103556 0.05096569 -0.049851257 0.011992394 0.015322396
-0.10396367 0.042334367 -0.09378361 -0.14939427 0.020271098 -0.063146316 -0.055356674 -0.073702484
-0.05950088 0.035621226 0.063845925 -0.1456595 -0.1609512 -0.07224095 -0.04067675 0.05511772
-0.08433795 -0.16749531 0.025178386 -0.11069074 -0.11206147 -0.060488634 0.08917835 -0.021840125
0.02363714 0.0633844 -0.06798631 -0.0769286 -0.065122575 -0.117916815 -0.076140575 -0.080231175
0.005839294 -0.122850135 0.02849727 -0.021448923 -0.12947291 0.029034328 -0.08742803 0.020054128
-8.143281e-06 -0.15686582 -0.20129953 0.06471216 0.039550904 -0.067128204 0.08502685 -0.11561558
-0.07087601 0.051080484 -0.08227888 0.04139201 0.008559568 -0.09977967 -0.10527311 0.10027168
0.043881282 -0.059419293 0.038498443 -0.06372699

weight f4 [100]
00000000: 01a4 7a3f 3ad4 683f 9775 6c3f 4ba8 883f
00000010: a2eb 733f d583 6b3f 34c9 763f 8923 743f
00000020: d37e 7a3f 99da 5f3f f18b 6d3f 579d 753f
00000030: 4634 793f 2510 7d3f 7fff 6e3f 9e05 733f
00000040: 9dfd 843f f415 783f da54 873f c1a5 723f
00000050: 2784 753f ebf4 7b3f 2bf4 7a3f eceb 733f
00000060: 88e5 813f 2c5e 803f 143e 833f 7e6f 6f3f
00000070: 5201 7a3f 5cc2 793f f041 7e3f 7c9f 893f
00000080: 359d 863f 100b 7c3f 765a 893f 8cc0 803f
00000090: f877 823f 318e 793f 2c45 873f a8e6 6e3f
000000a0: e7dd 7b3f 2aef 6c3f b99d 743f 1be3 6c3f
000000b0: f6d8 753f f3dc 883f 5776 743f 9f56 7f3f
000000c0: 6391 6d3f d203 763f 5c6b 803f 7eb0 873f
000000d0: e8b9 833f 820c 8b3f eaae 673f 9c7f 833f
000000e0: 6c72 873f bc4f 8b3f 430b 843f 8913 893f
000000f0: e5a8 833f bd17 773f 7508 643f 9b4f 863f
00000100: 3121 803f 4729 783f 6ca3 873f a4fd 733f
00000110: 4b71 893f 9f90 893f 3ada 753f e5de 803f
00000120: 28ce 803f a633 833f 3016 7a3f b061 813f
00000130: 0e30 843f eddd 803f 6147 7f3f b124 743f
00000140: 7c6a 833f bbfa 833f 0060 883f 9bb9 623f
00000150: 3426 843f 4270 6b3f c769 743f f4c2 833f
00000160: 890d 8c3f 122a 6e3f b29f 623f d741 773f
00000170: 2ba1 833f d4d4 8b3f adfe 873f 0419 613f
00000180: 29a1 7d3f b90d 823f 5ac2 873f caa7 803f
0.979065 0.9094883 0.9236693 1.0676359 0.9528142 0.91998035 0.9640076 0.9536672
0.9784977 0.8744293 0.9279166 0.95943207 0.9734539 0.9885276 0.93358606 0.94930446
1.0389897 0.969085 1.057277 0.9478417 0.95904773 0.9842059 0.9802882 0.95281863
1.0148172 1.0028739 1.025332 0.935295 0.97658265 0.97562194 0.9931936 1.0751796
1.0516726 0.9845438 1.0730731 1.0058761 1.0192862 0.9748259 1.0567985 0.93320704
0.9838547 0.92552435 0.95553166 0.92534035 0.9603418 1.0692428 0.9549307 0.9974155
0.9279997 0.9609958 1.0032763 1.0600736 1.0291109 1.0863192 0.9050127 1.0273318
1.0581794 1.0883708 1.0315937 1.0709087 1.0285918 0.96520597 0.89075404 1.0493044
1.0010129 0.96937984 1.0596747 0.953089 1.0737699 1.074726 0.9603611 1.0068022
1.0062914 1.0250137 0.97690105 1.0107937 1.0327165 1.0067726 0.9971829 0.95368487
1.0266871 1.0310892 1.0654297 0.8856446 1.0324159 0.91968167 0.95473903 1.029387
1.0941631 0.93032944 0.88524926 0.9658484 1.028356 1.0924325 1.0624596 0.87928796
0.99074036 1.0160438 1.0606186 1.0051205

bias f4 [100]
00000000: f6f6 3bbc 2b1a fbbd c792 21bd 9cd0 12bd
00000010: 3987 f9bd 8cf2 53be 1c81 033e 2c49 5c3d
00000020: b48e 6e3e 9bd1 28be d915 913d 29fc 293e
00000030: b1dd cabc 25af 7dbd 6843 edbc 2eae 183e
00000040: b9ed c8bc 5506 25bd 3d38 83bd ecb5 1ebd
00000050: 8cca c0bc 3543 973d 8acf 083e ace9 01be
00000060: 3022 ac3d 35fc a33d 7cf5 503d 2b02 b8bd
00000070: 0c9e 2cbc 5588 823d 43aa a53e 8a14 85bd
00000080: 47b4 32bc 1957 383d cb3e 84bd 3605 3d3d
00000090: 19f0 163d 248f 423d a4e6 c0bc bbfe 9fbd
000000a0: 766c 253e a926 b9bd 6c2a bd3d 6671 02be
000000b0: fdc1 133e 04c6 edbc 520f acbb 4d30 c23a
000000c0: b775 17bd a666 023e 8bcd ab3d 1df6 aabd
000000d0: 3516 a83c c8e6 263c d8b1 ba3c d98a 463d
000000e0: 6d4e 70bc dc08 19bd 1959 ff3d 75dd 3abc
000000f0: 3dab 813d a953 993d 5eff b8bd 73f7 0f3d
00000100: aa4f 983d 81a6 d6bc 0e18 0abd 293b 113c
00000110: 36c4 b8bc 0f17 ab3c f3c3 b8bd 356b d73c
00000120: dde7 31bd 221d 39bd f426 393d 02d1 89bd
00000130: 1590 a5bd 5d8f b3bb 1157 803c 379e 0c3e
00000140: 9146 67bd 7a16 db3c 4f29 ecbd 8dc2 6bbc
00000150: 4062 30bd 174e e8bc ba2d 3e3e d159 9a3d
00000160: 9a76 5ebc a4ee ddbd 7971 2b3b 7fc2 e33c
00000170: 0f21 0f3c b1b7 e2bc 7cc6 afbd 7da0 7a3d
00000180: 609f d33d 9d40 7ebc cbc8 133d 7033 0a3d
-0.011472454 -0.122608505 -0.03944662 -0.035843477 -0.12183995 -0.20697993 0.1284222 0.05378072
0.23296624 -0.16486208 0.07084245 0.16600098 -0.024763914 -0.06193461 -0.028962806 0.14910194
-0.024527417 -0.04028924 -0.06407211 -0.038747713 -0.023534082 0.073858656 0.1336042 -0.12686795
0.08404958 0.08007089 0.051015362 -0.089847885 -0.010535728 0.063736595 0.32356462 -0.06498058
-0.010907239 0.045004938 -0.06457289 0.046147548 0.03685007 0.04749979 -0.023547478 -0.07812258
0.16154656 -0.09040577 0.09236607 -0.1273857 0.1442947 -0.029025085 -0.0052508498 0.001481542
-0.036977496 0.1273447 0.083888136 -0.08347724 0.020518402 0.0101868585 0.02278988 0.04847226
-0.014667136 -0.037361965 0.12468166 -0.0114053385 0.06331489 0.0748666 -0.090330824 0.035148095
0.0743707 -0.026202442 -0.033714347 0.008864203 -0.022554498 0.020885019 -0.09021749 0.026296237
-0.043434013 -0.0451938 0.045203164 -0.06729318 -0.08084122 -0.0054797367 0.015666516 0.13732229
-0.05646378 0.026744116 -0.115313165 -0.014389646 -0.04306245 -0.028357549 0.18572131 0.07536662
-0.0135780815 -0.10836533 0.0026160164 0.027802704 0.008735909 -0.027675482 -0.0858278 0.06118821
0.10333133 -0.015518335 0.036080163 0.03374046

running_mean f4 [100]
00000000: 9a16 ac3e 55b2 a93e 328a 4f3e 025f ab3e
00000010: a4d1 e03e c31e e33e abfb e23e c27e 323f
00000020: 6e69 273f ac9a e03e 28dd 073f 4d56 103f
00000030: dc8a 123f e706 a23e ba8a 033f fde6 853e
00000040: bbe7 a23e 75b4 3c3e 20fe 863e 920e 0a3f
00000050: b496 de3e 0bbb 2b3f 4886 2e3f 69e7 d03e
00000060: fcec d23e c4d3 e43e dc46 9a3e 70d3 083f
00000070: f250 573e 4eb9 b63e 0238 1b3f a4c6 063e
00000080: fc7c b73e e448 f13e 5258 1e3e a32f c73e
00000090: fd56 ac3e 4d37 283e efc2 8d3e fa18 863e
000000a0: a5b6 fa3e 98c7 f93e 7741 0a3f 1a05 053f
000000b0: a99b 053f 0cd7 4c3e 086b 133f ec70 1c3f
000000c0: 03a3 073f 8cc4 393f c49a 1f3f d478 143e
000000d0: 341e 0f3f 95ef a83e 9950 fd3e b754 ac3e
000000e0: 237c 403e add8 163e ae58 1e3f 9a38 1e3e
000000f0: f23f eb3e c0c6 333e 8894 fd3e ed61 e03e
00000100: fadb d33e f6c1 073f 7cd5 193e e451 873e
00000110: adcf 433e de8d 363e 1a85 d13e 624f 533e
00000120: 882a 273e f32f 053e dbf8 253f 090c 873e
00000130: 751f 383e d4c7 673e 6419 663e f9b9 053f
00000140: c74f 983e ebcb 153f 3a1e ee3d 083d da3e
00000150: f290 973e 77ae dd3e dcca 433f d283 f43e
00000160: d647 323e 46d8 053f d732 ac3e 071f bc3e
00000170: e03c 9e3e a862 803e 6513 1e3e eb94 c63e
00000180: beb4 153f 9eca 843e d5ea f13e 877d 843e
0.33610994 0.3314387 0.20267561 0.33470923 0.43909943 0.44359407 0.44332632 0.6972467
0.6539525 0.43868005 0.5307183 0.56381685 0.5724313 0.3164589 0.51383555 0.26152793
0.3181742 0.18428214 0.26365757 0.5392848 0.43474352 0.6708228 0.68173647 0.40801552
0.4119643 0.44692814 0.30132186 0.5344763 0.21026972 0.3568825 0.60632336 0.13161713
0.35837543 0.47125924 0.15463379 0.3890353 0.33660117 0.16427346 0.27687785 0.2619093
0.48967472 0.4878509 0.5400614 0.5196091 0.52190644 0.20003909 0.5758519 0.61109805
0.5298311 0.7256553 0.6234553 0.14499217 0.5590546 0.32995287 0.49475554 0.33658382
0.18797354 0.14731093 0.61854064 0.1545128 0.45947224 0.17556286 0.49527383 0.4382471
0.41378766 0.53030336 0.15022844 0.26429665 0.19122191 0.17827556 0.4092186 0.20635751
0.16324818 0.13006572 0.6483285 0.2637637 0.1798075 0.22634822 0.22470623 0.52236897
0.29748365 0.5851428 0.11626859 0.42624688 0.29602772 0.4329717 0.76481414 0.4775682
0.17410216 0.5228313 0.33632538 0.36742422 0.3090582 0.2507527 0.15437086 0.3878549
0.58478916 0.25935835 0.47249475 0.2587702

running_var f4 [100]
00000000: c9c1 7b3f 346b 5c3e e72c 243e e530 8e40
00000010: 8efa ff3e 5f1c 8d3e 48cf 353f df32 803f
00000020: 50ba 503f 7627 ba3e 9263 f13e 05b1 803f
00000030: 3578 ad3f 0a52 a93f d330 023f c9db b23e
00000040: d635 0040 495a 903f 58e1 e43f 2375 803f
00000050: 33ca 933e 82ac 3b3f 0e0e 583f d33e 723e
00000060: 20d4 8d3f 8266 cd3f a8f0 f73f 0e35 033f
00000070: cc72 d93f b2b1 093f a264 433f 9440 f23f
00000080: 6844 0240 4a3d 1f40 c8ce 0840 0fbe d13f
00000090: 958f ca3f c278 a13f 1ed3 a53f bada 813f
000000a0: 9e76 893f 9442 df3e dcb7 b43f e4ad 053f
000000b0: 8a7f 673f 498b 0340 8e50 883f 7ae0 a33f
000000c0: 8a1d 0a3f a779 433f fee2 cf3f e253 b73f
000000d0: f04a 913f 6ff0 fb3f fdcb 1b3f 5801 db3f
000000e0: 6297 d53f 028b cb3f e620 0440 9b91 c23f
000000f0: 17b6 2040 fb9a bc3f 9a7b cb3e e972 993f
00000100: 116a 9d3f ddda 9a3e b910 d93f b2dd 923f
00000110: 55ad ff3f bb6d d53f 2936 e93e c3a1 0140
00000120: a232 f43f 240b d63f 7310 8d3f 3d3c cb3f
00000130: 6a53 b33f 6ae2 be3f 2d21 b23f c920 d03e
00000140: b719 c73f e14c bb3f 9b6e 6b3f a652 d23e
00000150: cc11 0d40 45cb e33e 65bb 753f 2a5f 983f
00000160: b3e4 d03f 6ef6 0c3f 7545 b03e 4417 073f
00000170: d236 b23f 6eac 3640 80c5 0940 86e6 0b3f
00000180: 3014 a33f e7ed e23f 9bdb f83f ee4f 0e40
0.9834257 0.2152527 0.16032754 4.4434686 0.49995846 0.27560708 0.7101941 1.0015525
0.8153429 0.3635823 0.4714628 1.0054022 1.3552309 1.3228161 0.5085575 0.34933308
2.003286 1.1277553 1.788127 1.0035747 0.28865203 0.733101 0.84396446 0.23656778
1.108036 1.6046908 1.9370317 0.5125283 1.6988158 0.53786767 0.7632543 1.8925958
2.0354252 2.4881158 2.137621 1.6386126 1.5825068 1.2614977 1.2955053 1.0144875
1.0739324 0.43605483 1.411861 0.5221846 0.90428984 2.0553763 1.0649583 1.280288
0.53951323 0.763575 1.6241148 1.4322474 1.1350994 1.968275 0.60858136 1.7109785
1.6686823 1.5901797 2.064508 1.5200685 2.511114 1.4734796 0.39742738 1.1988193
1.2297994 0.30245104 1.6958228 1.1473906 1.9974772 1.6674112 0.45549133 2.0254982
1.9077952 1.672215 1.1020645 1.5877758 1.4009831 1.4912846 1.3916374 0.40650013
1.5554723 1.4632837 0.91965646 0.4107868 2.2042112 0.4449102 0.95989066 1.1904042
1.6319793 0.5506352 0.34427992 0.52769876 1.392298 2.8542743 2.1526794 0.54648626
1.2740536 1.7728852 1.9442018 2.2236285
