nn_model_bot/loosey_goosey_model.pkl (torch, 126221 bytes, 26 tensors)

weight f4 [4, 2]
000000 53 3f 68 3f 21 38 5d 3e 80 e8 67 3f 6d 77 b0 3d
       0.90721625 0.21603443 0.9058914 0.08616529
000010 db 79 4e bf da de dc be ab 16 90 bf e5 a6 4f bf
       -0.80654687 -0.43138772 -1.1256918 -0.81114036

weight f4 [3, 2]
000000 13 4f 04 3f 21 96 dc 3f 14 2b 83 bf a5 30 88 3e
       0.5168316 1.7233316 -1.0247521 0.26599613
000010 42 a3 94 bf 38 59 b1 3f
       -1.1612322 1.3855352

weight f4 [4]
000000 00 b7 8b 3f bd 81 8f 3f 60 42 ad 3f e6 60 72 3f
       1.0915222 1.1211468 1.3535881 0.94679105

bias f4 [4]
000000 19 c6 68 be c8 0e fc 3b a6 ce 39 be 21 7d 76 bd
       -0.22731818 0.0076921917 -0.18145236 -0.060177926

running_mean f4 [4]
000000 90 c8 11 3f 52 9e 58 3e 66 cc 39 43 bb c5 44 3f
       0.5694666 0.21154144 185.79843 0.7686421

running_var f4 [4]
000000 62 84 0a 3d d9 2c e5 3b 99 b1 33 44 41 a6 10 3f
       0.033817656 0.0069938716 718.77496 0.56503683

weight f4 [200, 8]
000000 b1 0f 39 be 2e 29 fe bd d8 06 eb bd e9 49 2d 3e
       -0.18072392 -0.12410198 -0.11475915 0.16922726
000010 10 f7 ce 3e ba 2c a1 be 02 0f 23 be 0a de 23 be
       0.4042287 -0.31479436 -0.15923694 -0.1600267
000020 fa d7 b5 bc 55 05 8f 3d 4d ac 86 3d 8c f9 2c be
       -0.022197712 0.06983439 0.065758325 -0.1689207
000030 a9 fe a1 3e 18 38 76 be 70 0d cb 3e d4 f3 72 be
       0.31639603 -0.24044836 0.3965869 -0.23725826
000040 92 42 6b 3a be 98 44 b9 30 ab 0a 37 3b f3 5b be
       0.00089744583 -0.00018748918 8.265299e-06 -0.21479504
000050 93 ba 28 ba ae 75 b6 bc ad bb b6 3e 9a b7 91 bd
       -0.0006436493 -0.02227291 0.3569006 -0.07115097
000060 ab 7b c6 bc 14 37 5e 3b 48 a7 f0 3b 3b 7d 80 bb
       -0.024228891 0.003390734 0.00734416 -0.0039211786
000070 a8 ee 42 be 33 2a 93 3d dc f3 5d bd 56 0b 3d 3e
       -0.19036353 0.07185783 -0.05418764 0.18461356
000080 47 25 83 3e db 70 29 3b fe 16 0e be bb ce 19 3e
       0.25614378 0.002585462 -0.13875958 0.15020268
000090 b4 b9 80 be 3d db a3 3e eb a7 24 be 66 bd 97 3e
       -0.2514168 0.32003203 -0.1607968 0.29636687
0000a0 8d e2 1b be 8f 64 68 be 11 24 01 bd 00 f3 3c 3e
       -0.15223141 -0.2269461 -0.031528536 0.18452072
0000b0 83 9e d3 be 70 a9 54 3d 51 e0 6b be 51 9e b6 bc
       -0.41331872 0.0519194 -0.23034789 -0.022292288
0000c0 bd ac c4 bd e5 3d bf bd ac 70 83 bb b9 72 80 bd
       -0.0960326 -0.09337977 -0.0040112343 -0.062718816
0000d0 26 25 64 be ef fb 08 3f 08 f1 78 bd 74 9c 7e 3e
       -0.22279796 0.5350942 -0.06077674 0.2486437
0000e0 5a f5 4b bd 8e da 52 be b7 05 f2 3c 7e 08 f2 3d
       -0.049794532 -0.20591184 0.02954374 0.11818026
0000f0 b7 cc 07 bd 29 ac f7 3e 81 8d cf 3c 46 0e e7 3d
       -0.033154216 0.48373535 0.025336029 0.11282019
000100 e8 36 58 3c fe 71 a6 3c 23 21 5f 3e 59 3b 4b 3c
       0.013196684 0.020318028 0.21789984 0.012404286
000110 ea bd 1b be e4 e7 81 3e 76 96 36 3c fe 4d 20 be
       -0.15209165 0.2537223 0.011144271 -0.15654752
000120 1f b2 40 be a7 63 8c be 46 92 13 3e 18 7a 36 3e
       -0.18817948 -0.2741978 0.14411268 0.17820013
000130 c1 6f e9 bd eb 09 9f 3e 1a 58 92 bd 03 c5 47 be
       -0.113982685 0.31062254 -0.0714571 -0.19508748
000140 2e 05 bd bd 1b b9 7f bc 6c 1b 3e be 7c b6 65 be
       -0.092295036 -0.015608097 -0.18565148 -0.22432894
000150 48 17 37 be df d3 16 be b7 04 68 be 82 88 ef 3c
       -0.17879975 -0.1472926 -0.22658049 0.029239897
000160 64 61 17 3e a6 27 8a 3e c9 d4 04 3d 8e 63 22 3e
       0.14783245 0.26983374 0.03242949 0.1585829
000170 8a 7e a2 be 5d dc 80 3e 5f df ee be e8 37 3b be
       -0.31737167 0.25168124 -0.46654794 -0.18283045
000180 39 03 ee 3c 4e 2c 60 bd 90 a7 0b be 0d 13 b0 bc
       0.029054271 -0.054729752 -0.13638139 -0.02149346
000190 2a f9 88 be 10 4c 0c 3f dc 37 40 be ad 9c 24 bc
       -0.26752597 0.5480356 -0.18771309 -0.01004712
0001a0 cd a7 3f bd c6 90 49 3d 16 f8 fc b8 f4 e6 c1 3b
       -0.046790887 0.049210332 -0.00012062506 0.0059174243
0001b0 04 9d ec ba 6d 82 a8 3e 3d 30 22 3f d2 31 b9 be
       -0.0018052165 0.32912007 0.63354856 -0.36170822
0001c0 b0 98 26 3e 5a 6a 1a be 7f 13 93 be 45 75 db bd
       0.16269183 -0.15079632 -0.28725812 -0.10715727
0001d0 14 bb ae be ab 35 a6 be a0 90 1e bc d0 68 fb 3d
       -0.34127104 -0.3246282 -0.009678036 0.12275851
0001e0 10 0e 23 3e de 61 0a be 61 b8 37 be 0b d6 a8 bd
       0.15923333 -0.13513896 -0.17941429 -0.082439505
0001f0 28 0c c7 3e 02 07 78 3d 1a 87 b1 3d 55 51 85 3e
       0.38876462 0.06055356 0.08668347 0.26038614
000200 df aa 8f bc e7 39 dd 3d f0 9d ef bd df 45 09 3e
       -0.017537532 0.108020596 -0.11700046 0.1340556
000210 56 b8 0c be 8e 00 af 3e b4 f4 bb 3e 8a af 9a 3d
       -0.13742194 0.3418011 0.3671013 0.07553013
000220 51 00 33 bb 64 cb 34 3e bf 06 7e 3e b5 41 39 3e
       -0.002731342 0.17655712 0.24807261 0.18091471
000230 1f 03 e5 bc f0 c2 8a bd 11 fb 36 be fb 99 3c 3d
       -0.02795559 -0.067754626 -0.17869212 0.046045285
000240 e7 5f a2 3d 84 91 b0 be 4c 74 2a be 89 7c 48 be
       0.07928448 -0.3448602 -0.16645926 -0.19578756
000250 a8 94 63 3e dd 76 d7 3e ad 65 8b be 02 0f aa 3e
       0.22224677 0.42082873 -0.2722601 0.33214575
000260 54 5c 66 3b 33 d6 c5 3d dd 31 f7 3b 70 3d a1 3a
       0.0035150247 0.09659996 0.007543786 0.0012301635
000270 36 73 9c 39 84 06 b7 be 56 f0 6f 3e 2b 3c 85 3e
       0.00029840478 -0.3574716 0.23431525 0.26022467
000280 83 27 d8 3d 60 b1 e8 3d 0e 54 bf 3e 5a a8 4e be
       0.10554411 0.113619566 0.37368816 -0.20181409
000290 04 99 a6 be 46 d1 4c 3e d7 84 04 3e a6 c4 92 be
       -0.32538617 0.20001706 0.129413 -0.28665656
0002a0 bc b2 d7 3d ff c7 a8 3e c5 33 a5 3c 2f 7b 30 3d
       0.10532138 0.32965085 0.020166287 0.043086227
0002b0 33 88 21 3b 7d db 1b 3e b9 6b 9e be 26 03 84 be
       0.0024647831 0.15220447 -0.3094156 -0.25783652
0002c0 84 47 b2 3a f4 53 26 be d1 0d a8 bc e6 48 d9 3b
       0.0013601636 -0.16242963 -0.0205144 0.0066310046
0002d0 e3 22 8f bc da 0b ee 3d 87 1b 3d 3f 29 4b 51 bd
       -0.01747269 0.11623354 0.7387013 -0.05109707
0002e0 26 b3 d9 bc d3 f0 42 be 69 dd 2b 3d 56 4a 24 bc
       -0.026574682 -0.1903718 0.0419592 -0.010027489
0002f0 ab 8d 26 be ec 9f de 3e 55 67 04 bd e5 f0 a2 3c
       -0.1626498 0.43481386 -0.032325108 0.019890258
000300 34 58 91 3d da fc 71 3e f7 dc 6e be d0 84 91 3d
       0.070969015 0.23631611 -0.23326479 0.0710541
000310 2a 11 ac bd b9 6b 6c be 3a 94 98 3e aa d9 9c be
       -0.08401711 -0.23087968 0.29800588 -0.30634815
000320 b3 c1 3a 3d ca 08 b6 bd a9 47 cb bb 47 a1 ad 3c
       0.045594882 -0.08888395 -0.006203611 0.021195067
000330 2f 07 c1 3e 06 72 8e be e3 e5 1e bd b1 f0 31 3d
       0.37700793 -0.27821368 -0.038793456 0.04344243
000340 0c 46 27 be 5d 4f fd bd 6a 92 30 3d e9 ed 48 3d
       -0.16335315 -0.12368653 0.04310838 0.049055014
000350 6f f0 05 bd f2 4f c1 be 7c 84 9a 3d 80 bd 14 3e
       -0.0327 -0.37756306 0.07544801 0.14525414
000360 5c 1b 70 3e 62 9c 4b be 70 a7 1e 3e cb ed 6e 3e
       0.23447937 -0.19883874 0.1549356 0.23332898
000370 5a eb b1 be a3 1f 9e 3d 4c 24 99 be 06 b1 a8 3e
       -0.34749871 0.07720878 -0.29910505 0.32947558
000380 c6 38 15 3e b1 f8 a3 3d 0f f1 02 3d 0a a7 06 be
       0.14572439 0.080064185 0.031968173 -0.13149658
000390 cb 82 00 3f 58 26 4f be b5 14 38 be ca f2 62 3d
       0.50199574 -0.2022947 -0.17976649 0.055407323
0003a0 18 56 0a be 48 14 90 bc 2a 92 37 b9 ef 64 9f bd
       -0.13509405 -0.017587796 -0.0001750669 -0.077829234
0003b0 d7 b9 39 be d3 b9 58 be 9d 68 82 be b2 07 a1 3d
       -0.18137299 -0.21164636 -0.2547044 0.07862796
0003c0 3d 74 95 3d 06 5f 2c be cd 42 27 bd 67 36 2d 3d
       0.07297561 -0.16833124 -0.04083519 0.04228821
0003d0 b1 aa 0b bd 78 c7 9d 3e 7c 37 1b 3f 76 d9 97 be
       -0.03409833 0.30816245 0.6063154 -0.29658097
0003e0 42 ca c0 3c 4a c4 a9 be 93 b7 02 be a8 6e fb 3c
       0.023533944 -0.3315757 -0.1276534 0.030692413
0003f0 81 bb 7c be ab 5a e4 be d4 ce 52 3e 37 08 87 3d
       -0.24680902 -0.44600424 0.20586711 0.06593364

bias f4 [200]
000000 db f3 85 3d 9f f2 b5 bd 0e 81 65 be eb 1a bb be
       0.06540652 -0.08884167 -0.22412512 -0.36543974
000010 76 c2 9f be 16 83 be 3e b8 f9 85 bd 41 1d 5e be
       -0.3120305 0.37209386 -0.06541771 -0.21690847
000020 6f ad e5 be f4 9d 1c 3e a4 be 17 3e e2 d2 96 3e
       -0.44858882 0.1529463 0.14818817 0.29457766
000030 0b 6f 62 be 9f ee 10 3e db d6 13 bd d9 cb 9b 3e
       -0.22112672 0.14153527 -0.036093574 0.3042896
000040 5a 8f a2 3e fd 33 ca be 0f d8 1d be 80 fc ce be
       0.31749994 -0.3949279 -0.15414451 -0.40427017
000050 87 68 a6 3e f1 62 b3 3d 7c a5 e3 3d 17 4a d6 3c
       0.32501623 0.08759106 0.11115548 0.026158376
000060 39 b9 8b 3e 1c db 97 bd 4a 38 df bd b4 ba 0d be
       0.2728975 -0.07414839 -0.10899408 -0.13840753
000070 3c cd 98 be 0c 5c c5 be 69 8d ae bd 7a 11 31 be
       -0.2984408 -0.3854679 -0.085230656 -0.17291823
000080 4d 04 4e 3e 35 3a fc bd 8d 0e 8a be 64 fb 2d be
       0.20118828 -0.123157896 -0.26964226 -0.16990429
000090 5f 04 25 be 30 44 d4 3c cb 3c ab be c1 d0 08 3e
       -0.16114949 0.02591142 -0.3344482 0.13360883
0000a0 66 7e e0 be f3 cf 83 be c8 de 2a be 82 1a 6e be
       -0.43846434 -0.2574459 -0.16686547 -0.232523
0000b0 a0 b2 11 be 5d 47 0f bd e4 2d cd 3d 19 de 9f 3e
       -0.14228296 -0.034980167 0.100185186 0.31224135
0000c0 d9 60 6b 3e 95 17 64 bd e9 73 34 bd f6 d4 24 be
       0.22986163 -0.055686552 -0.044055853 -0.16096863
0000d0 d0 be b1 be 21 50 04 be 31 ab 84 be 88 a1 fe be
       -0.3471589 -0.12921192 -0.2591186 -0.49732614
0000e0 e0 3c ad 3c 03 47 39 be fc 10 35 be bf 06 eb 3d
       0.021147192 -0.18093495 -0.1768226 0.11475896
0000f0 31 2a 82 3e dc 7e 51 be 47 3b af 3e ab 7e 40 3e
       0.25422814 -0.2045855 0.34224913 0.1879832
000100 ac 05 94 bd 88 d3 a7 3d b8 27 3e be ee 81 3f 3c
       -0.07227644 0.08194643 -0.18569839 0.0116886925
000110 71 ff 4b bb c2 ef a6 be 08 c2 0a 3e a4 a9 c7 3d
       -0.0031127597 -0.32604796 0.1355058 0.09749153
000120 19 f9 28 3e 6f 56 55 3e 16 6c 98 3e 2c 75 11 bf
       0.16501273 0.20833753 0.29769963 -0.56819415
000130 9d d9 d6 be 04 5a 99 be b0 1c 97 3d 6b 87 0d 3e
       -0.419629 -0.2995149 0.073785186 0.13821189
000140 e5 f4 c5 bd 0f 32 ba be c0 81 c8 be 18 cd 91 be
       -0.096658505 -0.36366317 -0.3916149 -0.28476787
000150 d9 21 9b be 34 08 61 be d3 29 63 be f1 7b 68 3e
       -0.3029926 -0.21975785 -0.22183923 0.2270353
000160 ce 1a 16 3d ea bc f1 bb 33 6d f9 bd e3 67 34 3e
       0.036646657 -0.0073772566 -0.12179031 0.17617755
000170 48 2a 41 be 68 1c 4e 3d bf 6d 8f be cf 22 20 3e
       -0.18863785 0.05032006 -0.28013417 0.15638278
000180 10 8d b1 3e c1 bc 9a 3e fe 33 1b 3e 92 ea 64 bd
       0.34677935 0.30222133 0.15156552 -0.055887766
000190 91 a6 0d bd a0 74 56 bd b2 a2 b4 3e 0b cf 37 3e
       -0.03458268 -0.052357316 0.35280377 0.17950074
0001a0 5d 96 b8 3e 0f c4 24 be 8d a7 8e be cb c0 9b 3e
       0.36052218 -0.16090415 -0.27862206 0.30420527
0001b0 fb c4 14 3e f6 2b ce 3d ef 19 11 3e da 7d 3a be
       0.14528267 0.10066979 0.14170049 -0.18212071
0001c0 c1 6f 38 bd ad 39 82 3d 23 03 2f 3e 79 09 89 3d
       -0.04502845 0.06358657 0.1709104 0.0669126
0001d0 52 06 9b 3e 73 09 dd 3d 9b 0d cc 3d 32 4f 61 be
       0.3027826 0.10792818 0.099635325 -0.22002867
0001e0 82 48 8c be 77 c8 cf be 53 d1 86 be 75 44 be be
       -0.2739907 -0.4058263 -0.26331577 -0.37161604
0001f0 07 76 5b be 65 57 64 be 04 fa 3c be 0a 0f 80 be
       -0.21431743 -0.22298963 -0.18454748 -0.25011474
000200 aa 0a 76 3e 47 a3 72 3e 43 be 24 3e c0 fb 4d bd
       0.24027506 0.23695098 0.16088204 -0.050288916
000210 14 b0 9f 3e 13 f3 ba be d1 77 e6 bd 29 94 0c be
       0.31189024 -0.36513576 -0.11253322 -0.13728394
000220 c4 c8 06 3e ee 1d 0c 3e 02 a9 83 3d ad bc 8b be
       0.13162524 0.13683292 0.0642872 -0.27292386
000230 c2 51 05 bd 3d d1 4a bd cd 75 7d 3d eb 7f 28 be
       -0.032548673 -0.04951595 0.06187992 -0.16455047
000240 03 61 2e be 20 59 92 be a4 fd b4 3e 71 54 af be
       -0.17029195 -0.28583622 0.35349762 -0.3424411
000250 b5 20 cd be 78 72 68 be 22 33 21 be 12 cf 11 3e
       -0.40064016 -0.22699916 -0.15742162 0.14239147
000260 11 65 61 be 02 6b b1 3d 3b 4d 0c 3e 4b 6a ae 3d
       -0.2201121 0.08662988 0.13701336 0.085163675
000270 8b ed ac 3e 4b 66 04 3d 90 a3 ce bb d0 10 27 3e
       0.3377498 0.032324117 -0.0063061193 0.16315007
000280 09 e1 e8 bd 7c ae c6 be 97 d5 2b be f4 99 88 3e
       -0.11371047 -0.38804996 -0.16780697 0.26679957
000290 99 4c 26 3e 9b 6d 3b 3e b0 e0 f8 be db ae a1 3b
       0.16240157 0.1830353 -0.48608923 0.0049341745
0002a0 e7 0f 4b 3e 5a 47 08 be 20 77 12 3e 14 f5 7e be
       0.19830285 -0.13308468 0.14303255 -0.24898177
0002b0 b9 11 91 3e 1e d9 0b bd 0e 40 c6 3e a8 ac f6 3d
       0.28333834 -0.034142606 0.38720745 0.1204465
0002c0 49 df eb be c1 24 e3 be c2 00 92 bd 79 4e 2a be
       -0.4606879 -0.44363979 -0.07129051 -0.16631497
0002d0 11 e1 9d 3d 8d 31 f6 bc 2c 07 c6 3d be 24 b5 be
       0.07708944 -0.030052925 0.09669337 -0.35379595
0002e0 f7 73 8e 3e d7 ce 49 be bf 5b 2e be 12 96 bb 3c
       0.2782285 -0.1970781 -0.17027186 0.022898708
0002f0 37 2b 1a be c9 60 1f be 84 9c 18 be 04 3a 81 3e
       -0.15055548 -0.15564264 -0.14903456 0.25239575
000300 9a c8 11 3e 13 77 bd be 6f a1 a4 be c6 4e 2c 3e
       0.1423668 -0.3700491 -0.32154414 0.16826925
000310 a6 21 e6 3c 5f 73 29 be 07 d4 9c be dc a8 5c be
       0.028092217 -0.16547917 -0.30630514 -0.2154879

weight f4 [200]
000000 34 4b 74 3f 89 ec 68 3f e0 c1 8f 3f ef e1 87 3f
       0.9542725 0.90985924 1.1231041 1.0615824
000010 ec 65 6b 3f f0 e6 72 3f 7e 62 80 3f 69 fc 79 3f
       0.91952395 0.9488363 1.0030057 0.9765077
000020 05 1f 85 3f b8 6e 76 3f 05 b6 6a 3f 2e ce 6d 3f
       1.0400091 0.96262693 0.9168399 0.9289273
000030 80 1e 7c 3f 53 3b 81 3f 51 49 58 3f 94 7a 62 3f
       0.9848404 1.0096229 0.8448687 0.8846829
000040 03 cf 75 3f 3b 4e 7a 3f 4f ee 6d 3f 26 c0 9e 3f
       0.96019 0.9777562 0.92941755 1.2402389
000050 96 29 6d 3f 20 07 7c 3f 9b b3 84 3f 89 f4 87 3f
       0.9264158 0.9844837 1.0367311 1.0621501
000060 75 30 6a 3f 71 16 81 3f 99 98 67 3f be 0e 76 3f
       0.9148019 1.0084974 0.9046722 0.96116245
000070 e3 74 74 3f 78 0c 8f 3f 18 75 81 3f 6f 13 77 3f
       0.95490855 1.117568 1.0113859 0.9651403
000080 8e 60 6c 3f b0 76 6c 3f ba a6 78 3f 6a 6d 86 3f
       0.9233483 0.923686 0.97129405 1.050214
000090 c8 d1 69 3f cb 58 72 3f 76 24 87 3f 72 5a 77 3f
       0.91335726 0.9466674 1.0558002 0.96622384
0000a0 0c 26 6c 3f 38 1b 79 3f 62 84 71 3f 91 46 80 3f
       0.92245555 0.9730716 0.94342625 1.0021535
0000b0 c7 73 6e 3f a0 79 7f 3f b7 c8 83 3f 3e 75 67 3f
       0.9314541 0.9979496 1.0295628 0.9041327
0000c0 9d 5f 5b 3f 7c 63 7a 3f 27 04 79 3f dd 48 71 3f
       0.8569277 0.9780805 0.9727196 0.94251806
0000d0 34 5a a4 3f 81 09 69 3f f7 d9 7e 3f 5c d4 7e 3f
       1.2840028 0.91030127 0.9955134 0.99542785
0000e0 9b 8a 75 3f 03 14 7a 3f d1 c8 9f 3f b3 a8 63 3f
       0.9591462 0.97686785 1.2483159 0.8892929
0000f0 03 7e 6e 3f ad 52 73 3f 51 c9 61 3f 23 5b 70 3f
       0.9316103 0.9504803 0.8819781 0.93889064
000100 d0 62 79 3f 87 75 70 3f 5d 3f 7d 3f 52 32 67 3f
       0.974164 0.9392933 0.9892481 0.9031116
000110 fe b7 5c 3f 73 3a 6e 3f dd 1f 75 3f d5 1e 5f 3f
       0.8621825 0.93057936 0.95751745 0.8715642
000120 72 da 79 3f 86 a0 6d 3f e1 41 67 3f 3f 5c 8b 3f
       0.97598946 0.92823064 0.903349 1.0887526
000130 83 c1 80 3f 4c c1 7a 3f ec 3e 71 3f ad 7e 79 3f
       1.0059055 0.979512 0.94236636 0.97458917
000140 f5 07 77 3f 4c 37 6e 3f ed d3 6a 3f d0 78 72 3f
       0.96496516 0.93053126 0.91729623 0.94715595
000150 05 13 6b 3f 88 7e 69 3f 7f bc 62 3f a9 b1 7c 3f
       0.91825897 0.91208696 0.8856887 0.9870859
000160 a3 88 76 3f 82 ab 66 3f a1 6e 68 3f 7b 5e 73 3f
       0.9630224 0.9010545 0.90793806 0.9506604
000170 ab 68 7c 3f b6 9a 68 3f 45 2a 82 3f 29 12 70 3f
       0.9859721 0.9086107 1.016915 0.9377771
000180 ac f4 75 3f 13 65 6c 3f 6a cf 6a 3f 12 f1 73 3f
       0.96076465 0.92341727 0.9172274 0.9528972
000190 d1 ab 83 3f e5 58 81 3f 17 86 6c 3f 1e ae 72 3f
       1.0286809 1.0105253 0.92392105 0.9479693
0001a0 75 23 73 3f a2 3f 6d 3f 06 d9 80 3f 90 46 76 3f
       0.9497598 0.9267522 1.006623 0.9620142
0001b0 14 c8 7d 3f 50 9a 67 3f 83 18 6e 3f 92 2d 76 3f
       0.9913342 0.9046984 0.9300615 0.96163285
0001c0 26 74 68 3f fc 61 72 3f 47 82 6e 3f 0b 73 64 3f
       0.9080223 0.9468076 0.9316754 0.8923804
0001d0 15 5c 74 3f 80 bf 66 3f a6 64 6d 3f f5 72 6c 3f
       0.95453006 0.90135956 0.927317 0.9236291
0001e0 5a 67 93 3f 4e 73 76 3f 30 10 5c 3f b3 bc 7f 3f
       1.1515915 0.9626969 0.859622 0.9989731
0001f0 a9 3d 9b 3f 19 e7 6c 3f ac 94 81 3f 16 39 7b 3f
       1.2128192 0.9254013 1.0123496 0.9813398
000200 22 f1 64 3f 56 05 6c 3f 29 44 6c 3f 52 db 6d 3f
       0.8943044 0.9219564 0.92291504 0.9291278
000210 c2 93 64 3f 3e 97 7c 3f d4 dd 64 3f 91 a7 91 3f
       0.8928796 0.9866828 0.8940098 1.1379262
000220 79 c6 67 3f bd 40 67 3f 72 ea 79 3f 1f 51 6b 3f
       0.9053722 0.9033316 0.9762336 0.91920656
000230 91 09 7c 3f 1e 3e 73 3f 2a 3c 7c 3f 1e 7c 80 3f
       0.984521 0.9501666 0.98529303 1.0037878
000240 61 d6 7c 3f b2 eb 6e 3f 43 bd 6a 3f 65 c8 7d 3f
       0.98764616 0.9332839 0.9169504 0.991339
000250 af e6 8a 3f 67 4f 6e 3f 3c 18 9b 3f c1 c4 7d 3f
       1.0851649 0.9308991 1.2116771 0.9912835
000260 25 90 6b 3f 72 ab 63 3f 3f a6 71 3f 47 5b 66 3f
       0.9201682 0.8893348 0.94394296 0.8998303
000270 27 e7 71 3f aa 8f 68 3f 78 12 6c 3f 61 b4 75 3f
       0.94493335 0.90844214 0.9221568 0.9597836
000280 e0 ce 5f 3f b4 fb 9f 3f 6d e5 7c 3f 1c ec 60 3f
       0.8742504 1.2498689 0.98787576 0.87860274
000290 42 f7 70 3f 40 9a 71 3f 6f 04 95 3f 48 e4 6d 3f
       0.94127285 0.9437599 1.1641978 0.92926455
0002a0 a5 aa 8d 3f 46 79 7b 3f 11 fe 75 3f 16 a3 88 3f
       1.1067702 0.98231924 0.960908 1.067477
0002b0 f0 98 79 3f 0b f6 69 3f 12 45 87 3f 4e 75 72 3f
       0.9749899 0.91391057 1.0567954 0.9471024
0002c0 b1 6d 6f 3f 2c 54 7d 3f 0a fd 7a 3f 70 ad 6b 3f
       0.9352675 0.9895656 0.98042357 0.9206152
0002d0 32 d3 7d 3f 01 68 74 3f ea 53 68 3f 24 9d 68 3f
       0.99150383 0.954712 0.9075304 0.9086478
0002e0 f7 3d 63 3f 61 20 62 3f 2a 72 80 3f 3a dc 5c 3f
       0.88766426 0.88330656 1.003484 0.8627354
0002f0 17 43 62 3f 3f 73 75 3f 7a 9e 63 3f ae c8 75 3f
       0.8838362 0.95878977 0.8891369 0.9600934
000300 c0 33 8d 3f 89 f1 81 3f 42 78 76 3f 66 bf 69 3f
       1.1031418 1.0151836 0.9627725 0.91307676
000310 91 09 6e 3f 31 44 5d 3f 04 eb 63 3f b7 1f 6d 3f
       0.9298335 0.86432177 0.8903048 0.9262652

bias f4 [200]
000000 45 f4 09 be e3 38 2f be 6f 6d a8 bd 3f bc 3d 3e
       -0.13472088 -0.17111544 -0.08223998 0.18528841
000010 00 56 ec bd 59 b4 cf 3d 89 32 e9 3d 94 8e 26 bb
       -0.11539841 0.101418205 0.11386592 -0.0025414573
000020 c5 d7 a4 bd 28 15 08 3d 85 ed 1c 3c 01 a7 9c 3e
       -0.08048967 0.0332233 0.009578113 0.30596164
000030 c4 9a 68 3e 0f a0 3b 3e 16 13 4e be ea 5b d4 bd
       0.22715288 0.18322776 -0.20124468 -0.10369094
000040 bb b0 c4 bd ce c4 71 3e 94 b7 01 3e de 48 e7 3d
       -0.09604021 0.23610231 0.12667686 0.11293195
000050 c1 bf 26 3e 41 ca 44 3e 4f b5 02 be 73 9d 1f bd
       0.16284086 0.19217779 -0.12764476 -0.038968515
000060 00 7e a2 3d 17 56 3c be fe e0 22 be 71 ba 22 3d
       0.07934189 -0.18392216 -0.1590614 0.039728586
000070 a5 32 92 bd 4c dd 53 3e 32 26 c2 3d ba 64 28 3d
       -0.07138566 0.20689887 0.094799414 0.041111685
000080 64 62 00 3e 92 e2 f0 3c 5a 88 85 3e 87 5d ea 3c
       0.12537533 0.029404912 0.2608059 0.02860905
000090 b6 46 6b be 49 5a 82 3e 92 4d bc bd 22 f4 08 be
       -0.22976193 0.25459507 -0.09194483 -0.1337438
0000a0 68 49 c9 3d 80 9f 53 3e e1 b3 0f be e9 a6 8b 3e
       0.09828454 0.20666313 -0.14033462 0.2727578
0000b0 e1 76 78 bd f2 48 4a be 40 bc 0a 3e 0b db 22 3d
       -0.060660247 -0.19754389 0.13548374 0.039759677
0000c0 75 0b 3f 3d ec ab 69 3e 9b e1 32 be 95 fc fc bd
       0.046641786 0.22819489 -0.17468874 -0.12352864
0000d0 9f bd e9 3d aa 34 15 be dc fc 87 bc 81 1a 45 be
       0.114131205 -0.14570871 -0.016600065 -0.19248392
0000e0 db 6c 58 3e 31 07 81 3e ea c5 7e 3e 47 45 b6 3c
       0.21135275 0.252008 0.24880186 0.02224983
0000f0 ad 22 50 bc ae d7 88 3e da ab 20 3a 60 20 ec 3d
       -0.01270358 0.2672705 0.00061291235 0.115296125
000100 cc 9e 36 3e 96 7d 6d be 9b 3a f0 bd 7a f1 b2 bd
       0.17834014 -0.23192438 -0.11729928 -0.08737464
000110 6f 92 98 bd 49 9f 1e be ac 66 f4 bd 64 af 7c 3e
       -0.07449805 -0.1549045 -0.119336456 0.24676281
000120 f2 08 1b 3e 17 ed f4 bd 51 91 10 be 53 80 06 be
       0.15140131 -0.11959284 -0.14117934 -0.1313489
000130 b5 a8 1a 3e 97 13 50 3e b9 27 50 3e 97 02 40 3e
       0.15103419 0.20319973 0.20327653 0.18750988
000140 e2 5b 8a 3d 64 f1 39 be 70 a0 b5 3d b6 d6 16 bd
       0.067558065 -0.1815849 0.08868492 -0.036825858
000150 14 5b 50 3d eb 61 56 3d 6e ff c4 3d 04 4b 65 3e
       0.05086811 0.052339476 0.09619032 0.22391897
000160 84 7a 92 bd 14 52 3e bd 61 b5 7c 3c 4b 54 d0 bd
       -0.07152274 -0.046464995 0.0154241035 -0.101723276
000170 85 45 98 3d 93 ff 82 be 0d da df bd 0d ea 67 3e
       0.07435135 -0.25585613 -0.10930262 0.22647877
000180 ba e1 b3 bd 49 87 53 3d dd 39 9e bc e6 cf b4 3d
       -0.08783288 0.05164269 -0.0193147 0.08828716
000190 51 74 8b bc 5a e9 2a 3e 19 1a 9a 3d ae 4e d1 bc
       -0.017023237 0.16690579 0.07524509 -0.025550213
0001a0 fb ff 76 3e 34 a1 e1 bc b6 1e b5 3d fc fd 1c bd
       0.24121086 -0.027542688 0.08843748 -0.038328156
0001b0 bd 82 8e bc 50 21 f3 3a 3b ce 4d bd 4b a2 b3 bd
       -0.017396325 0.0018549357 -0.050245505 -0.08771189
0001c0 a0 fc d9 3d af 63 c9 bc cb 10 ab bd b3 4b 13 3d
       0.106438875 -0.024583666 -0.083528124 0.035960864
0001d0 e5 19 16 be ab e4 2f 3d 80 a6 47 be 80 d8 5b 3d
       -0.14658315 0.042942684 -0.19497108 0.053673267
0001e0 61 f0 39 3d 16 70 ca 3d 80 08 e0 3a e2 c0 01 3e
       0.04539526 0.0988466 0.0017092377 0.12671235
0001f0 a2 e3 be be 28 75 45 bd e7 e7 42 3e 21 6a 4d 3d
       -0.37283045 -0.048207432 0.19033776 0.05015004
000200 53 f7 95 bd a2 82 53 3d 0a 29 06 bd 1a 54 3a 3d
       -0.07322564 0.051638253 -0.03275398 0.04549036
000210 ed 0c 9c 3d 37 6c 56 bd f7 dd 15 3c e1 b5 74 be
       0.07619653 -0.052349295 0.009147159 -0.23897506
000220 ba 5b 3e 3e 1c 41 96 bd 1c fa 05 be 46 65 c7 3c
       0.18589678 -0.073366374 -0.1308369 0.024340283
000230 9e a0 2b bd ed 5a 89 bc 6e e2 82 3e 61 7f 05 3e
       -0.041901223 -0.01676699 0.25563377 0.13036872
000240 2d de 92 3d da af bb bd a4 50 4e 3e 23 25 2f be
       0.07171283 -0.091644004 0.2014795 -0.1710401
000250 f1 34 47 be db 4b 39 be 7b f3 ac bd 0a 2e b9 3d
       -0.1945379 -0.18095343 -0.08444878 0.090419844
000260 5c 1e ef 3d ba 27 bf 3d 75 ad 47 3d d9 3f c2 3c
       0.116757125 0.09333749 0.048749406 0.023712086
000270 bd 79 07 3d 62 d3 79 bd b4 fd 98 3d 60 ce 25 be
       0.033075083 -0.060992606 0.07470265 -0.16192007
000280 5f a6 40 bb b8 4f 80 be b4 1b a5 3d ae d9 2f be
       -0.002939604 -0.2506082 0.080619246 -0.17172882
000290 f0 4b 03 be b1 9d 94 3e 93 8c 9c bc 39 1e 43 3e
       -0.12821937 0.2902656 -0.01911 0.19054498
0002a0 cb 53 ce 3d 93 59 03 bd fe 62 c7 3d 79 ce 05 3e
       0.10074576 -0.032067847 0.09735678 0.13067044
0002b0 c2 73 8c 3d 33 d3 a2 bc 9c 61 25 3d bd b9 1e 3d
       0.068580166 -0.019876098 0.04037629 0.038751353
0002c0 a6 0a 17 bd 27 ba 26 be c6 95 80 bd 84 ed 39 bd
       -0.03687539 -0.16281949 -0.06278567 -0.04539253
0002d0 a8 60 29 be e8 bd 0d bd 38 68 b6 bd 1a e4 56 3e
       -0.16540778 -0.034604937 -0.08906597 0.20985451
0002e0 63 94 16 3e 32 a7 49 be f8 04 5d 3d 48 b8 6e 3d
       0.14705043 -0.19692686 0.053959817 0.058281213
0002f0 2f 50 43 be 9c 7a c7 3d 1b d7 af 3d 3d 8d e6 bd
       -0.19073556 0.09740183 0.0858595 -0.11257408
000300 76 d0 9e 3d 7c 15 e4 3b 07 04 7d 3d 35 8d 25 be
       0.077546045 0.006960569 0.06177142 -0.16167147
000310 50 18 3c 3d bc dd 04 3d c6 ac 81 3d 58 03 a9 3d
       0.045921624 0.032438025 0.06331782 0.08252591

running_mean f4 [200]
000000 e2 ec bc 3e 0a 87 08 3e bb 26 03 3a 49 3a 16 3d
       0.36899477 0.13332763 0.00050030247 0.03667668
000010 3c 68 c9 3e cc f1 2a 3f 1b ef a6 3e 21 fb 70 3e
       0.39337337 0.667752 0.32604298 0.23533298
000020 fd 24 69 3c 76 1a a9 3e 49 c9 51 3e f0 ac 3d 3f
       0.01423001 0.33028 0.2048694 0.74092007
000030 44 dd 99 3e 20 8e 87 3e 35 a3 a8 3e 4a ee d6 3e
       0.30051625 0.2647562 0.32937017 0.41978675
000040 bc 7d 14 3f d7 86 9e 3d 80 4b aa 3e 2d 1a 1d 3c
       0.58004355 0.077405624 0.33260727 0.00958876
000050 d7 50 96 3e 24 08 96 3e 49 90 64 3e 3a 52 84 3e
       0.2935855 0.29303086 0.22320665 0.25843984
000060 b6 d7 30 3f a2 1d 20 3e 37 67 6b 3d 65 13 e9 3e
       0.6907915 0.15636304 0.05747148 0.4552261
000070 23 ea ca 3d 54 f2 33 3d 89 e3 34 3e 4a 59 59 3e
       0.09907939 0.043932274 0.17664923 0.21225467
000080 11 d9 8d 3e 42 35 05 3e 92 11 58 3d 42 d2 ea 3d
       0.2770467 0.13008597 0.05275113 0.11465885
000090 2f c4 a8 3d 20 05 54 3e 7c 6e f3 3d f8 4e b6 3e
       0.08240544 0.2070508 0.118863076 0.35607123
0000a0 81 ea de 3c bc a9 db 3d bc 37 05 3e c2 85 5d 3e
       0.02721143 0.10725734 0.13009542 0.21633056
0000b0 89 1c f3 3d cb 31 81 3e 19 47 86 3e df 8a 28 3f
       0.11870677 0.25233302 0.26226118 0.658369
0000c0 cb 76 b2 3d 8c 56 b5 3d 96 d0 55 3e 99 84 f0 3d
       0.08714064 0.08854398 0.2088035 0.11744041
0000d0 50 86 0b 3c 21 3f e6 3d 2b 46 95 3c ba 11 98 3c
       0.008515909 0.1124251 0.018221935 0.01856314
0000e0 50 2e 99 3e c0 ea 7b 3d 4c e7 57 3c 42 85 87 3e
       0.29918146 0.061503172 0.013177704 0.26468855
0000f0 de d1 09 3f d1 a8 54 3d 70 af 91 3e 2f 11 35 3e
       0.53835857 0.05191881 0.2845416 0.17682336
000100 16 55 96 3e 1c df a2 3e bd 56 a5 3d 88 62 3a 3e
       0.2936179 0.31810844 0.08073185 0.18201649
000110 ea e5 cc 3e 22 3a 53 3d 8a 00 5f 3e 17 da 48 3e
       0.4001916 0.05156911 0.2177755 0.19614445
000120 97 19 bc 3e ee a8 b7 3e ca 03 10 3f cf e4 21 3c
       0.36738274 0.3587107 0.5625578 0.009881212
000130 35 8e 14 3e 14 bf 0a 3e 4d 61 0e 3f 46 6a 0b 3e
       0.14507373 0.13549453 0.5561722 0.13614759
000140 de 9a 18 3e b3 8e 75 3e c3 65 d2 3d 3b 69 8f 3e
       0.14902827 0.23980217 0.10273316 0.28009972
000150 e8 91 b7 3d 62 14 5d 3e 8e d9 8b 3e 2c d6 a3 3e
       0.08963376 0.21589807 0.2731442 0.31999338
000160 29 4f 1b 3e 29 65 ad 3e 17 10 33 3f 3d 9d a0 3e
       0.15166916 0.33866242 0.69946426 0.31369963
000170 6d cb 52 3e e9 a9 56 3e 1a bb 0a 3d 2d 94 a1 3e
       0.20585413 0.20963253 0.03386984 0.31558362
000180 c7 82 e9 3e 28 b2 c6 3e 82 2c 18 3e 3f 7b 2a 3e
       0.45607588 0.38807797 0.14860728 0.16648577
000190 1b 8c 58 3e 7c 5a 40 3d 04 b5 ec 3e 19 63 9f 3e
       0.21147196 0.046961293 0.46231854 0.31130293
0001a0 b1 9f 20 3f 2c c2 65 3d 44 73 af 3d 0c af a5 3e
       0.6274367 0.05609338 0.08566907 0.32360113
0001b0 84 15 55 3e eb ea f1 3e 29 01 01 3f 5e 00 f0 3d
       0.20808989 0.4724954 0.50392395 0.1171882
0001c0 7a ca 60 3e 2b b7 4a 3e 86 39 b5 3e 68 0e 94 3e
       0.21952239 0.19796436 0.3539545 0.2891724
0001d0 d4 b3 be 3e 17 c7 df 3e 6c 25 98 3e e3 4e 0f 3d
       0.37246573 0.4370658 0.2971605 0.03498734
0001e0 95 7f c7 3c b7 bf c6 3d fe 0a 1c 3e f0 85 ef 3d
       0.024352828 0.097045355 0.15238568 0.116954684
0001f0 d8 db 96 3b 02 9c 0b 3e 30 0e ac 3d 56 b3 c3 3c
       0.004603844 0.13633731 0.084011436 0.023889225
000200 8a 7b b7 3e 1c da 91 3e 77 03 ca 3d a3 06 aa 3d
       0.3583644 0.28486717 0.09863942 0.08302047
000210 cb bf b2 3e f0 7f 20 3e 7d d9 15 3f 8a 38 db 3b
       0.3491195 0.15673804 0.58534986 0.0066900896
000220 65 86 84 3d c0 72 82 3e e2 d1 85 3e 4c 75 2e 3e
       0.06470946 0.25478172 0.2613669 0.17036933
000230 dd a1 9e 3e 7a 0f d2 3d 2d 48 8f 3e e8 bb e3 3b
       0.30982867 0.10256858 0.27984753 0.0069498904
000240 af 15 5f 3d ff f5 01 3e 91 9d aa 3e 6e 5e f6 3c
       0.05446404 0.12691496 0.3332334 0.030074324
000250 f7 7e 38 3c 08 0f 80 3d 63 c9 27 3c c7 56 75 3e
       0.0112607395 0.06252867 0.010240885 0.23958884
000260 8a d0 61 3e 98 cd fe 3e 54 de 82 3e ca 18 db 3e
       0.22052208 0.4976623 0.25560248 0.4279235
000270 b5 10 85 3e 71 f8 83 3e af 62 22 3d 40 5a 92 3e
       0.2598931 0.25775483 0.039644893 0.2858448
000280 2b e8 87 3e 82 68 f3 3a 76 06 39 3d d6 40 dc 3e
       0.26544318 0.0018570574 0.045172177 0.43018216
000290 b2 6a e6 3e aa 23 c5 3e 4e ae 51 3c 42 14 bb 3e
       0.45003277 0.38503772 0.012797905 0.36538893
0002a0 e7 a1 99 3e 7a a6 d4 3d 3d d1 b7 3e c0 9e e3 3b
       0.30006334 0.103833154 0.35901824 0.0069464147
0002b0 af 13 ae 3e 38 c3 16 3e c7 47 d4 3e c9 23 29 3e
       0.33999392 0.14722908 0.41461012 0.16517557
0002c0 26 c6 14 3e 6c f9 7a 3d df 9a 46 3e 92 30 73 3e
       0.14528713 0.061273023 0.19395016 0.23748997
0002d0 12 30 e2 3e 41 26 cf 3d 43 33 3b 3e a3 b0 da 3d
       0.441773 0.10114718 0.18281274 0.10678222
0002e0 fe 0b fe 3e dc 63 08 3f fb ec a7 3d d6 14 4f 3d
       0.49618524 0.53277373 0.08199497 0.05055698
0002f0 f6 a5 e8 3d 76 1d 16 3d 7e dc a5 3e bd 00 49 3f
       0.113597795 0.03664919 0.32394785 0.7851675
000300 91 5d 64 3e d9 21 c9 3c c8 8a 4d 3e b3 34 c9 3e
       0.22301318 0.024552273 0.20072472 0.3929802
000310 4f 83 23 3e 3c c5 91 3e 62 e6 4f 3c 6e e0 41 3d
       0.15968059 0.2847079 0.012689205 0.047333173

running_var f4 [200]
000000 a6 10 76 3e c9 31 82 3d 77 0b f0 36 85 42 38 3c
       0.24029788 0.06357152 7.153892e-06 0.011246328
000010 f5 8d 7d 3e 22 33 b7 3e 4c b9 43 3e f4 a0 b8 3d
       0.24761184 0.357812 0.19113654 0.09015074
000020 f3 c3 61 3b 69 8b 2c 3e fd a5 f3 3d 83 c3 f0 3e
       0.003444907 0.16850056 0.11896894 0.47024164
000030 bd 3a 46 3e b1 1d 2a 3d bb 23 03 3e 55 b3 49 3e
       0.19358344 0.041532222 0.12806599 0.19697316
000040 9d 5a 27 3e 5d 11 1f 3d 80 d1 bb 3e 43 c8 77 3b
       0.1634316 0.03883492 0.36683273 0.0037808574
000050 87 c3 26 3e 57 f8 01 3e de b3 c1 3c 95 13 dc 3d
       0.16285525 0.1269239 0.023645338 0.107459225
000060 67 a6 b4 3e 71 02 9a 3d 75 7e 8f 3c 6d 61 c7 3e
       0.35283205 0.07519997 0.017516354 0.38941517
000070 3f 2e a1 3d 96 fa 83 3d 89 75 f7 3c 09 6a a1 3d
       0.07870149 0.0644428 0.030207412 0.07881553
000080 9d 49 69 3e 29 0a 5d 3e 82 29 b1 3d a5 1a d2 3c
       0.22781987 0.21585907 0.08650495 0.02564747
000090 9b 7f 9f 3c 66 e9 39 3e 1a dd e3 3c f4 c3 00 3e
       0.019470027 0.1815544 0.02781539 0.1257475
0000a0 3c 3c 6a 3c 26 ec e3 3d 65 fa 7c 3d 79 a7 b6 3e
       0.014296588 0.11129026 0.061762232 0.35674646
0000b0 8b 02 4c 3d 12 b2 ca 3d b3 db 15 3d 9f 2e b0 3e
       0.049807113 0.098972455 0.036586475 0.3441057
0000c0 7c 68 24 3d 87 d4 93 3d 3a b6 16 3e 9e 65 60 3d
       0.040138707 0.07218271 0.14717951 0.05478441
0000d0 0d d1 45 3b c5 e5 19 3d 8e e2 aa 3b 62 a1 8c 3b
       0.0030184418 0.03757264 0.0052149957 0.0042916993
0000e0 c4 d7 0b 3e 1b 11 a2 3d 56 2c 03 3a ce c5 aa 3d
       0.13656527 0.07913419 0.000500386 0.083385095
0000f0 56 8f ac 3e 2f 84 1a 3d 10 69 fd 3d 17 5c c4 3d
       0.33703107 0.037723716 0.12373555 0.09587877
000100 01 99 fa 3e 80 1c 17 3e e7 c2 1d 3d b0 cf ac 3d
       0.48944858 0.14756966 0.03851595 0.08438051
000110 a6 9a 29 3e 7d 0c ae 3c aa 64 a8 3d 58 25 97 3e
       0.165629 0.02124619 0.08222325 0.2952068
000120 0f 08 8a 3e ce 69 2b 3e 7e 48 68 3e d9 15 88 3b
       0.26959273 0.1673958 0.22683904 0.004152995
000130 2c 20 21 3e f8 c4 34 3e fe 03 06 3f 62 86 92 3d
       0.15734929 0.17653263 0.5234984 0.07154538
000140 9c cc 73 3d 34 06 2a 3e ba a2 44 3d 00 a8 07 3e
       0.059521303 0.16603929 0.04800675 0.1324768
000150 40 0e 1f 3d 85 ad b0 3d 41 ef f5 3d 97 01 41 3e
       0.03883195 0.08626846 0.12008525 0.18848263
000160 fb ab 60 3d fa 2e 1f 3e 39 75 cb 3e 89 8f 05 3e
       0.054851513 0.15545264 0.3973787 0.13043036
000170 b8 d7 1e 3e bc 60 b1 3d f3 69 26 3c 1e a9 b3 3d
       0.15511978 0.08661029 0.010157096 0.08772491
000180 04 ad 64 3e 98 2f ee 3d a9 a4 5b 3d f0 43 0c 3e
       0.22331625 0.116301715 0.05362383 0.13697791
000190 b1 2e cc 3d d8 a5 05 3c b9 ab 61 3d e1 af 34 3e
       0.09969843 0.008157216 0.055095408 0.17645217
0001a0 ee 96 f8 3d 4a 88 c8 3c 1a dc 46 3d 85 c3 b9 3d
       0.121381626 0.02447905 0.04854975 0.090704955
0001b0 be 50 44 3d 62 05 69 3e ed 3e a1 3e 0c 35 06 3d
       0.047928564 0.2275596 0.3149332 0.032765433
0001c0 eb 59 b9 3e 6e 6a 8e 3d 1b 33 1a 3e ca 2c af 3d
       0.36201414 0.069538936 0.15058558 0.08553465
0001d0 63 94 dd 3c f3 6e 83 3e 55 cb 0f 3e 15 fb 4d 3c
       0.027048295 0.25670585 0.14042409 0.01257207
0001e0 0d 36 58 3c 6b bc 36 3d 08 36 3f 3d cb 6d 8b 3d
       0.01319648 0.044613283 0.046682388 0.06808051
0001f0 71 36 42 39 17 03 ec 3c 91 23 8e 3d d4 ed 42 3c
       0.00018521563 0.028810067 0.069403775 0.011897523
000200 3d 5b 0b 3e 93 94 23 3e dc 13 23 3d 86 4a a4 3d
       0.13609023 0.15974645 0.03981386 0.08022027
000210 15 28 c7 3d c4 36 68 3d b5 98 2e 3f 6b 0c ba 38
       0.09724442 0.056692854 0.6820176 8.871484e-05
000220 e0 95 35 3c f7 d6 18 3e 72 d5 c8 3d 66 ab 86 3d
       0.011083096 0.14925753 0.098063365 0.065756604
000230 bd d1 4b 3e 57 9f 53 3d b4 33 67 3e e6 9d 82 3a
       0.19904228 0.05166563 0.22578317 0.000996527
000240 0b 2f bb 3c 56 a3 81 3d c9 78 a3 3d 84 62 7b 3b
       0.02284958 0.06329982 0.07982022 0.003835828
000250 9c 87 e7 3a 62 51 b7 3c 30 17 4f 39 2c 1b 81 3e
       0.0017664316 0.022377674 0.00019749696 0.25216043
000260 54 5f 07 3e 5b 54 81 3e 82 9f 84 3e 3f ba 5d 3e
       0.13219959 0.2525967 0.25902945 0.21653078
000270 e5 11 90 3d 43 06 f6 3d 09 cd 8f 3c 7e a0 10 3e
       0.07034663 0.12012913 0.017553823 0.14123723
000280 a9 d0 4d 3e c1 cb 23 38 3c d3 9c 3c 2c 4c a1 3d
       0.20099129 3.905199e-05 0.019143693 0.07875857
000290 cc c4 c9 3e 82 98 cd 3e c3 8e 2f 3b 0c 98 d9 3e
       0.39407957 0.40155417 0.0026787973 0.42498815
0002a0 70 3f 17 3d bc 31 74 3d 08 f7 85 3e 1c 88 27 3a
       0.036925733 0.059617743 0.26165032 0.00063908263
0002b0 5f 39 f0 3c e7 4a 49 3d ef 08 8d 3e 53 c3 86 3d
       0.029324232 0.049143698 0.27545878 0.06580224
0002c0 55 c6 cc 3d 12 5a c7 3c ed 53 92 3d c3 d2 27 3e
       0.09998766 0.024334941 0.07144914 0.16388993
0002d0 68 3e 89 3e 0a 24 1d 3d a5 5f c1 3d 61 80 2b 3e
       0.26805425 0.038364448 0.09442071 0.16748191
0002e0 62 05 49 3e 47 31 8b 3e 5e f7 cc 3c ca a2 67 3c
       0.1963096 0.27186033 0.025020298 0.014137933
0002f0 81 90 0f 3d 94 e5 8b 3c 97 b5 1d 3e b7 2d d6 3e
       0.03504992 0.017077245 0.15401302 0.41831753
000300 d0 b9 a3 3c 15 5f e9 3b 9c e7 e6 3d 41 9e d9 3d
       0.019986063 0.0071219304 0.11274645 0.10625888
000310 31 da 7c 3d 70 8b 5d 3e 3f 21 b5 3b f5 62 62 3c
       0.06173152 0.21635222 0.005527645 0.0138175385

weight f4 [100, 200]
000000 a0 ce 45 bc b3 0f 6c 3b 77 f1 94 bd 6d e3 81 3b
       -0.012073189 0.00360201 -0.07272618 0.003963879
000010 d9 f6 46 3d 14 80 dc bc 8d 3d c0 bc 2d e4 c3 bc
       0.048575256 -0.026916541 -0.02346685 -0.023912514
000020 48 61 6c 3c a1 45 81 bc 86 58 a0 bb c2 c6 05 bd
       0.0144274905 -0.015780272 -0.0048933653 -0.032660253
000030 37 8e 2f bd 9b 9e 84 bd 30 15 b7 3c 6e 28 9a bc
       -0.042860236 -0.06475564 0.02234897 -0.018818107
000040 93 e0 24 3d 6f 03 7e 3c c5 29 dc bc 3a 3b 5d 3e
       0.040253233 0.015503748 -0.026875386 0.21604624
000050 33 51 b1 3c b7 ca e1 bc d2 18 6b bd e6 1d 62 3b
       0.021645164 -0.027562482 -0.057396717 0.0034502684
000060 0f da 9b bc 5b 7e 01 3d 41 2f 07 3d e7 9e fe bb
       -0.019024877 0.031614643 0.03300405 -0.0077704075
000070 42 e5 2a bc 63 36 08 be 62 2e 46 39 fe 84 9e 3a
       -0.010430636 -0.13301997 0.0001890003 0.0012094078
000080 56 4f f2 3c ef b8 11 bd e2 4c c9 bc 39 90 3e bd
       0.029578846 -0.035576757 -0.024572793 -0.04652426
000090 bb e5 b3 3c 0e 72 2b bd d4 c3 08 3d 08 5e 02 bd
       0.02196013 -0.041856818 0.03338988 -0.031827956
0000a0 4f 69 da 3b fb 5c 49 bd ce 94 e0 3c ff e9 0e bc
       0.006665386 -0.04916094 0.027414706 -0.008722781
0000b0 73 47 bb 3c 21 91 51 bd d5 15 96 3b 2d 32 79 3c
       0.022861218 -0.051163796 0.0045802393 0.015209717
0000c0 c2 44 a6 bc 15 04 5b bc 96 fd 30 3d db 71 15 3c
       -0.020296458 -0.013367672 0.04321059 0.009121384
0000d0 b2 18 4a 3e f4 07 e5 bc 28 a1 d2 3c aa 90 43 3d
       0.19735983 -0.027957894 0.02571161 0.047745384
0000e0 85 3f f9 bc 11 34 53 bd be 62 fc bd 82 10 93 3c
       -0.030425796 -0.051563326 -0.12323521 0.017952207
0000f0 d0 4b 83 bd 56 52 6e bc 89 f6 59 3b d8 64 36 bd
       -0.064109445 -0.014545998 0.0033258519 -0.044529766
000100 3e 27 f6 b9 d0 b3 b2 bc 44 4b 13 39 d2 89 b8 bc
       -0.00046950014 -0.021814257 0.00014047051 -0.022526655
000110 00 f1 be 3c ab e1 80 3d ce 13 c4 3b eb 75 12 3d
       0.023308277 0.06293043 0.005983806 0.035756987
000120 2b e1 0c bc a8 ea 3c 3d 44 13 71 3c 9a 4e 10 3d
       -0.008598606 0.046122223 0.014714066 0.03523121
000130 06 6c 5c bd bf 42 96 3c 3f a6 0f 3c 61 16 ec bc
       -0.053813957 0.018342374 0.0087676635 -0.028819265
000140 57 68 54 bd 92 2e 4f 3d 3c cd 81 bc cb 5a 50 3c
       -0.05185732 0.050581522 -0.015844934 0.012716959
000150 87 7c 34 bd 33 dc c8 bb b0 1e 9d 3b 59 57 d0 bc
       -0.04406407 -0.0061297654 0.004794918 -0.025432276
000160 6f 42 57 3c 14 7a 70 3b af fd 90 3c 92 5f db bc
       0.013138398 0.0036693858 0.01769909 -0.02677897
000170 7c 5b e8 bc 58 ac 2a 3d 49 e2 ba 3b d8 0a 14 bd
       -0.028363936 0.041668266 0.005703245 -0.036143154
000180 8c f9 4b bd 1f cd 95 3c b5 64 e7 3c e4 c9 4b 3c
       -0.049798533 0.018286286 0.028246263 0.012438271
000190 81 27 db 3b 0f ba 99 bd e4 a1 3b bb d5 e1 41 3d
       0.006688059 -0.07506191 -0.002863043 0.04733451
0001a0 60 73 f2 3b c4 df da bb af 9c db 3c 79 35 bf 3c
       0.0073990077 -0.006679507 0.026808111 0.023340927
0001b0 59 dd 92 3c 82 b2 83 3c 37 09 47 3c a4 29 f7 bc
       0.017927812 0.01607633 0.012148193 -0.030171223
0001c0 45 62 b7 3c b1 6c d2 3b a1 78 b0 bc 01 eb 3c bd
       0.022385726 0.0064216484 -0.021541895 -0.046122555
0001d0 34 90 8d bc e6 f1 16 3d 14 4e d6 3c 71 79 00 3d
       -0.017280675 0.036851786 0.026160277 0.031365816
0001e0 61 82 0f 3d 5e d5 5c 3d db 97 93 3c a7 0f 8c bd
       0.03503645 0.05391442 0.018016746 -0.06838923
0001f0 81 e8 a3 3c 1e 34 3d bc 62 50 f9 bc bb 2a 1e bc
       0.020008327 -0.01154807 -0.030433837 -0.009653742
000200 60 ff 19 3d 9c ee 8e 3c 81 fa 51 bb 9f 63 06 bd
       0.03759706 0.017447762 -0.003204018 -0.03280985
000210 7a 0f 58 3a 5f 6b 91 bb 49 7c 8f bc 27 ba f3 bc
       0.0008242052 -0.0044378485 -0.017515318 -0.02975185
000220 f1 8d 9d bd 47 46 eb 3c 73 e1 2a bc 15 4e 9c bd
       -0.07693089 0.028720034 -0.010429728 -0.076320805
000230 50 31 17 bc c9 01 a7 bc b2 da 81 3c fb 2c 6b bc
       -0.009228066 -0.020386593 0.015851352 -0.014353986
000240 ed 31 c3 bc 00 8b e7 3c 10 a7 47 3d 66 56 41 3a
       -0.023827517 0.028264523 0.048743308 0.000737524
000250 b7 55 2a 3d b4 02 7b bc bc ea 72 bd 25 f2 3c 3d
       0.04158565 -0.015320469 -0.05930589 0.046129365
000260 f3 1a c4 3c 95 ca e5 3c 84 7e dc bc 1e 4c bb bc
       0.023938632 0.0280507 -0.026915796 -0.022863444
000270 e9 16 1d bb 0c cc 5b bd d8 c7 e8 ba bf 41 99 3c
       -0.0023969954 -0.05366139 -0.0017759753 0.018708108
000280 76 44 77 3b 3e 34 83 bd 9e b5 21 bd b9 c4 05 3d
       0.0037730015 -0.06406449 -0.039479844 0.032658312
000290 90 83 30 39 fb 8a 95 bd 8e 5d 41 bb cf a3 44 bd
       0.00016833679 -0.07301899 -0.0029505226 -0.048007783
0002a0 dd 51 7f 3b 56 56 84 bb 04 f0 8f 3c 1a b9 ab 3d
       0.0038958706 -0.0040386124 0.017570503 0.08384915
0002b0 37 2d 22 bc ba 00 b4 ba 75 08 f1 3c fb 36 1e 3d
       -0.009898475 -0.0013733127 0.029422978 0.038626652
0002c0 1a f2 20 3d 48 0e 01 3d 4e fc eb 3c e0 66 21 3c
       0.039293386 0.03150776 0.028806832 0.0098511875
0002d0 bb d7 f2 bc 47 21 9b bc ac 18 09 bb 79 b1 3c 3c
       -0.029643884 -0.018936766 -0.0020919247 0.011516922
0002e0 9b 02 bd bc ae 54 b6 bc e3 86 ac ba 3c 73 dc 3c
       -0.023072531 -0.022257175 -0.0013162758 0.026910417
0002f0 11 ca a5 bc 7a 24 60 3c 5e 70 1b bc 70 a2 94 3c
       -0.020237954 0.013680572 -0.00948724 0.018143862
000300 4a 17 f5 bc 81 a0 a6 3b ba 31 f0 3b 8d a2 4b 3d
       -0.029918332 0.0050850515 0.0073301466 0.049715567
000310 9b b4 99 bc f1 f1 e9 3c 21 6a 58 3c b7 0e 26 bb
       -0.018762877 0.02855775 0.013208897 -0.002533836
000320 0b 45 7b 3d b7 5a 0a 3d 88 e2 ad bd 49 b0 91 bd
       0.06134514 0.03377792 -0.08490473 -0.07113702
000330 b3 11 f4 bb a3 d9 81 3d f1 14 9c bd 8c 87 b3 bd
       -0.007448399 0.06340339 -0.07621182 -0.08766088
000340 61 c7 88 bc ba d2 23 ba b2 d5 85 3d 57 74 b6 39
       -0.016696634 -0.0006249357 0.065349 0.00034800425
000350 e3 ae ed bb b5 15 4e 3d c6 f0 56 3c e4 f2 8a bc
       -0.007253514 0.05031367 0.013118928 -0.016961522
000360 09 32 80 bc a6 d9 42 bd e9 3a 0b 3b 46 df 34 3e
       -0.015648859 -0.047570847 0.002124483 0.17663297
000370 6c b5 a0 3c b5 04 1c 3c 25 1a e7 bc f4 bd 01 bd
       0.019617759 0.009522607 -0.028210709 -0.031675294
000380 97 d5 80 bc 40 30 42 bc f4 ac a5 bd e7 7f 12 3d
       -0.015726848 -0.011852324 -0.08089629 0.03576651
000390 b2 75 02 3d 8c c7 43 bc b9 09 21 3d 40 4e a4 bd
       0.031850524 -0.011949431 0.039315913 -0.080227375
0003a0 ec 5f 6a 3c ee 96 86 bc 58 bb 37 bd f5 75 b9 bc
       0.014305096 -0.01642939 -0.0448564 -0.022639254
0003b0 29 04 17 bd 02 b3 77 bd c3 3b 50 bd d2 98 c9 bb
       -0.0368692 -0.06047345 -0.050838243 -0.006152251
0003c0 0e 10 ad bd ac 75 1f 3c 1c 20 4c bd 92 28 b8 3c
       -0.08450328 0.009732645 -0.04983531 0.022480283
0003d0 55 8b 93 3c cb 67 91 bc cb 85 61 3b 22 76 98 ba
       0.018010775 -0.017749688 0.0034412022 -0.0011631886
0003e0 da d8 7f bc b7 85 85 3b bd 6e 80 3d 78 17 d7 bb
       -0.015615666 0.004074778 0.06271122 -0.006564077
0003f0 fd 16 14 3e 8e 8a 37 bd 2e 72 4e bd 94 75 ad 3b
       0.14461894 -0.04480987 -0.05040186 0.0052935574

bias f4 [100]
000000 4b cd 48 be 42 66 6c be a6 ee 8a bc 4f 0c 82 3d
       -0.19609563 -0.23085883 -0.0169595 0.06350004
000010 27 06 f6 bc 20 d6 b5 3c cc eb 95 3d 12 1c b2 bd
       -0.03003223 0.02219683 0.07320365 -0.0869676
000020 a7 3b f1 bb a8 58 d3 bd 2b 6d 98 bb 4b 05 1b bd
       -0.0073618474 -0.10319644 -0.0046516857 -0.037846845
000030 c2 55 ad 3c b1 11 70 bd c4 8d 36 3c fc 11 8e 3c
       0.021159057 -0.05861062 0.011142198 0.01734256
000040 1f 55 9e be f8 2e e2 bc 25 f5 3b be ca 45 8d be
       -0.30924317 -0.027610287 -0.18355234 -0.27592307
000050 dc e2 1c 3d 84 f4 2a bd dc 64 89 3c 97 92 0c be
       0.038302287 -0.041737095 0.016771726 -0.13727795
000060 51 04 15 be 67 42 e7 bc 24 33 88 3d 71 d9 2d bd
       -0.14552428 -0.028229905 0.06650379 -0.042443696
000070 fc 68 05 be 6e 32 07 be 43 84 54 bd 39 df e3 3b
       -0.1302833 -0.13202831 -0.051883947 0.0069541004
000080 ef 6a 88 be f9 ba 24 bb 7e 0a ab bd 14 40 8f bd
       -0.26644084 -0.0025135858 -0.083516106 -0.06994644
000090 7d ab ae bd 47 49 1e 3d ca 89 94 3c bf 4c 10 bd
       -0.085288025 0.0386441 0.01813211 -0.03522944
0000a0 8a 7e 3c be 7b ee d4 3c b1 b6 97 bd 13 51 0d bd
       -0.18407646 0.025992623 -0.074078925 -0.034501147
0000b0 4e 70 ba bc fd b8 b0 bd 80 c4 1a be 7c ff b7 3a
       -0.02275863 -0.08629034 -0.15114021 0.0014037932
0000c0 4b 1c 35 bd 10 a0 7a bd ab 4d 20 be ee 9d 12 3e
       -0.044216435 -0.061187804 -0.15654628 0.14318058
0000d0 4c da 5b bd c1 03 9b bd 85 af 95 3d a6 b1 54 bd
       -0.05367498 -0.075690754 0.07308868 -0.05192723
0000e0 0e d6 55 be 99 05 2f bd 4a a3 8d be 13 8f 19 be
       -0.20882437 -0.042729948 -0.27663642 -0.14995985
0000f0 7b 3b f3 bd 0c 0c f3 bd d6 37 9b be bf c9 28 bd
       -0.118765794 -0.11867532 -0.30316037 -0.041208025
000100 af 73 0c be 72 32 35 be a0 d7 6e be 78 1c d7 3b
       -0.13716005 -0.17695025 -0.23324442 0.006564673
000110 bb 03 a5 bd 2a 51 d9 3c d4 6c f6 bc dd 97 79 3c
       -0.08057352 0.02652796 -0.03008119 0.015233961
000120 a0 bd 3c bd cb 0f fb 3c dc 19 ba bd 0a 33 87 bc
       -0.046079278 0.03064718 -0.090869635 -0.01650383
000130 39 dd 8f 3d 13 bb 84 bd b6 84 57 bc eb 44 13 be
       0.07024617 -0.06480994 -0.013154199 -0.14381759
000140 ef ac 2d be f6 2e 07 be f3 07 7e be a1 f1 77 be
       -0.169605 -0.13201508 -0.2480772 -0.24213268
000150 0a 5d 34 bd c6 c6 cd bd bb cf 2d be 55 16 24 bd
       -0.04403404 -0.10047679 -0.16973774 -0.04006036
000160 4f 2b fe bd 55 2d 45 bd 6d 44 a8 bd 5c d3 64 bd
       -0.12410604 -0.048138935 -0.08216176 -0.05586563
000170 1f c0 a8 bd 69 ac f4 bd ed b9 fc 3c b7 e3 58 be
       -0.08239769 -0.11946947 0.030850375 -0.21180616
000180 b9 45 62 be ca a7 56 be 5a 06 2d be c6 ca c0 bd
       -0.2209691 -0.20962444 -0.16896954 -0.09413676

weight f4 [100]
000000 b4 ea 81 3f f4 21 80 3f e2 de 75 3f a7 40 7c 3f
       1.0149751 1.0010362 0.9604322 0.9853615
000010 7f 10 5e 3f 08 a5 67 3f 98 26 6b 3f a2 53 69 3f
       0.8674392 0.9048619 0.91855764 0.9114324
000020 d1 a4 78 3f 09 5c 74 3f c6 ce 81 3f f9 57 6d 3f
       0.9712649 0.95452935 1.0141227 0.9271236
000030 75 98 67 3f dc d5 68 3f 99 6f 7f 3f 4e f8 72 3f
       0.90467006 0.90951324 0.9977966 0.9491013
000040 e6 33 93 3f 8e 4e 77 3f 27 0c 8d 3f 76 3c 8c 3f
       1.1500213 0.9660424 1.1019334 1.0955951
000050 77 59 6f 3f 4d 03 81 3f 83 64 7b 3f 50 d7 7e 3f
       0.9349589 1.0079132 0.98200244 0.9954729
000060 81 3a 76 3f 7e 70 72 3f d5 2e 63 3f ac 10 7d 3f
       0.9618302 0.947029 0.88743335 0.98853564
000070 67 93 84 3f 6a 08 8b 3f 42 e7 75 3f 32 d5 78 3f
       1.0357484 1.0861943 0.96055996 0.9720031
000080 67 ec 81 3f cb c4 73 3f a4 fd 6e 3f ca ab 75 3f
       1.0150269 0.9522216 0.93355775 0.95965254
000090 57 f7 7a 3f 71 13 81 3f 35 55 76 3f 96 e2 7a 3f
       0.9803366 1.0084058 0.96223766 0.9800199
0000a0 6f ad 89 3f f6 f6 7a 3f 35 93 78 3f 56 1f 80 3f
       1.0756053 0.9803308 0.9709962 1.0009563
0000b0 56 55 6e 3f e7 2f 70 3f f4 56 89 3f 11 f0 74 3f
       0.9309896 0.93823093 1.0729661 0.9567881
0000c0 8a f0 76 3f de 8c 7b 3f 99 d8 91 3f b1 dc 60 3f
       0.96460783 0.9826182 1.1394225 0.8783675
0000d0 27 2f 76 3f 2a ed 78 3f 78 4f 6f 3f fd 33 70 3f
       0.961657 0.97236884 0.93480635 0.9382933
0000e0 65 3a 8d 3f 96 aa 70 3f 00 ff 94 3f b9 b6 78 3f
       1.1033446 0.94010293 1.164032 0.9715381
0000f0 40 e4 79 3f f9 f1 73 3f b1 e2 9e 3f af 1c 7a 3f
       0.97613907 0.95291096 1.2412931 0.9770002
000100 fc 20 81 3f 16 2a 87 3f f8 6e 8b 3f 32 4e 71 3f
       1.0088191 1.0559719 1.089324 0.9425994
000110 48 69 86 3f 97 7a 69 3f 27 ef 64 3f eb 7f 6d 3f
       1.0500879 0.9120268 0.8942742 0.9277331
000120 91 02 81 3f 5a c1 7b 3f a5 8f 86 3f b1 7e 78 3f
       1.0078908 0.98341906 1.0512587 0.97068316
000130 d2 1f 6e 3f 44 d0 6d 3f c8 88 62 3f e9 2d 8e 3f
       0.93017304 0.92895913 0.8848996 1.1107761
000140 e4 be 84 3f 9b 54 8e 3f df a1 70 3f 85 43 88 3f
       1.0370755 1.111957 0.93996996 1.0645605
000150 f0 42 6f 3f d1 77 74 3f ea 99 79 3f fb d1 79 3f
       0.93461514 0.95495325 0.9750048 0.9758603
000160 eb ba 7a 3f c6 42 6b 3f 4d 88 77 3f 7f 46 6d 3f
       0.97941464 0.91898763 0.96692353 0.92685694
000170 71 d5 75 3f 18 50 77 3f 7e 56 76 3f da 32 86 3f
       0.9602881 0.9660659 0.96225727 1.0484269
000180 16 4e 87 3f 22 7a 87 3f 4d 81 87 3f e5 21 7c 3f
       1.0570705 1.0584147 1.0586334 0.9848922

bias f4 [100]
000000 7f f7 b5 bd cc 8b c8 3d f0 fa 53 bd 14 fa d1 3d
       -0.08885097 0.09792289 -0.051752985 0.10252777
000010 b8 3e 27 3e 77 df 04 3e 8f f7 e0 3d 6b b9 4b 3d
       0.16332519 0.1297587 0.10984718 0.049737375
000020 fe e5 27 3e 24 1d 19 3d da 27 24 be 0a 93 2e be
       0.16396329 0.037381306 -0.16030827 -0.17048278
000030 bc f5 ea 3d bb 78 90 3d 53 f4 a7 3d d4 0e dd bd
       0.11472651 0.070542775 0.08200898 -0.10793844
000040 33 99 c8 3d 39 c7 4f be dd bd 8a 3e c6 f4 db 3d
       0.097948454 -0.20290841 0.2709798 0.10740046
000050 b8 7b d3 bd 7e 71 b8 bd 2d 6e 17 3d 14 4e 5c bd
       -0.10326332 -0.09006022 0.036970306 -0.0537854
000060 1f 1d 73 3c 7b 5a a3 3c 2a cd a0 3c d3 75 1b 3c
       0.014838486 0.019940605 0.01962908 0.009488541
000070 94 79 a8 bd aa 8b 69 3e bd e0 e4 3d 95 c3 9f 3d
       -0.08226314 0.22807184 0.11175678 0.07800976
000080 b2 b0 36 3e 39 62 42 3e fe 1a 31 bc de 41 05 3c
       0.17840841 0.18982781 -0.010809658 0.00813338
000090 7b 4f 0c be 2b fd dc 3d 1f f6 02 3e 2c e4 12 3e
       -0.13702194 0.107904755 0.127892 0.14344853
0000a0 c1 c3 3b 3d ce 93 a5 bd 15 01 16 3e 4a 34 19 3c
       0.045840982 -0.08084832 0.1464885 0.009350846
0000b0 07 25 11 3e 06 0d df 3d 3a 5b d4 3d b1 76 43 3e
       0.14174281 0.10891156 0.103689626 0.19088246
0000c0 23 4d 11 bd 44 fc fc 3d 29 e8 b5 3d 7e 18 c7 3d
       -0.035473954 0.12352803 0.08882172 0.097214684
0000d0 97 54 1d 3e 88 fc e5 ba f9 f8 6a 3c d2 10 b8 bc
       0.153643 -0.0017546574 0.014341586 -0.022468958
0000e0 4a b8 5d 3e b2 88 ab 3d dd 6b 02 3e f0 8f 74 3d
       0.21652332 0.08375682 0.12736459 0.059707582
0000f0 54 f2 8c 3d fc d1 e2 3d 49 aa 2f 3e 31 ac ef 3d
       0.06882158 0.110752076 0.17154802 0.11702765
000100 55 19 15 3e 99 6a 99 3d 6d 4a 2b 3e 0b 6b 85 3d
       0.14560445 0.07491035 0.1672761 0.065145575
000110 1e 68 95 bd b7 39 94 3d 48 32 17 3e 45 db af 3d
       -0.072952494 0.07237571 0.14765275 0.08586744
000120 b2 a2 ff bc 05 48 31 3e 39 e0 a5 3c a9 81 9e bd
       -0.031205509 0.1731263 0.02024852 -0.077395745
000130 65 27 97 3d d8 ab 6d 3b 04 8e 33 bd ce b7 5f 3e
       0.07380561 0.0036265757 -0.04383661 0.2184746
000140 85 d9 80 bd 74 7a 7d 3e 03 ad c1 3d 54 97 1f 3d
       -0.062914886 0.24753743 0.094568275 0.038962677
000150 fb a5 28 3d f8 76 26 be ff 48 8c 3d 5f 39 2d bc
       0.041173916 -0.1625632 0.068498604 -0.01057276
000160 a1 31 d9 3d 44 5a ed bd e5 17 8b 3d 4d 37 e3 bd
       0.10605169 -0.115894824 0.06791667 -0.11094532
000170 ef 0f 2c 3e e4 7e 9c 3d 62 e9 9a 3c ba cd 37 3e
       0.16802953 0.0764139 0.018910114 0.17949572
000180 57 f5 41 3d 3a dc 8a 3e d5 ae 34 3e 3f f5 91 3d
       0.047353115 0.27121145 0.17644818 0.07126855
