nn_model_bot/loosey_goosey_model.pkl (torch, 124192 bytes, 25 tensors)

weight f4 [4, 2]
000000 a0 07 d0 3f 0e d1 81 3e 72 cb 03 3e 36 18 98 be
       1.6252327 0.2535481 0.12870577 -0.2970597
000010 56 22 66 be 89 e8 9f bf 7b 53 f1 3f 28 68 97 bd
       -0.22474036 -1.2492839 1.8853601 -0.07392913

weight f4 [4]
000000 4b 49 84 3f 3b de 88 3f bf e1 93 3f 3a b7 66 3f
       1.0334867 1.0692819 1.1553267 0.9012333

bias f4 [4]
000000 63 38 8f bd 36 fb f5 3d 7d ba 00 be 59 65 81 3d
       -0.06993177 0.12010805 -0.1257114 0.06318159

running_mean f4 [4]
000000 47 a5 11 3f 52 9e 58 3e 66 cc 39 43 bb c5 44 3f
       0.5689282 0.21154144 185.79843 0.7686421

running_var f4 [4]
000000 38 85 0a 3d d9 2c e5 3b 99 b1 33 44 41 a6 10 3f
       0.033818454 0.0069938716 718.77496 0.56503683

weight f4 [200, 6]
000000 81 6c c9 bd 70 77 28 3e e3 e5 16 3e 41 52 54 3e
       -0.098351486 0.16451812 0.14736132 0.20734502
000010 83 c2 15 3d 0a a3 c2 bb d8 4f da bb 06 81 dc 3d
       0.036562454 -0.005939846 -0.00666235 0.10766797
000020 0e c8 f7 3e e5 ff 8f be a6 1f 12 3d 2c af 2f 3e
       0.48394817 -0.2812492 0.035674714 0.17156667
000030 8a 2c 42 be 4b 64 aa 3e ca 33 fc 3d 4d df db be
       -0.18962303 0.33279642 0.123145655 -0.42943802
000040 b4 0c 09 3b b5 d3 be bd 8f cf cc 3d 23 60 68 be
       0.0020912113 -0.09317724 0.10000526 -0.22692923
000050 7d a4 4c 3e 0c 0e 26 3e 8b 01 a2 3d e5 77 9d bd
       0.19984622 0.16216296 0.079104505 -0.07688884
000060 df 3d a5 be ba 79 b0 3e 45 78 5e be 71 71 a7 3e
       -0.32273766 0.3446787 -0.21725567 0.32703736
000070 09 91 0f be 79 c6 18 3e af ac 03 bf 3f 48 05 3e
       -0.1402017 0.14919461 -0.5143537 0.13015841
000080 93 2e 82 bc d1 e5 cf 3d 2c 81 a4 bb a1 b1 7f 3e
       -0.015891349 0.10151256 -0.0050202813 0.24970104
000090 0f f0 55 3b fe 11 5a be e4 8e 5c 3e a5 c0 a4 be
       0.0032644307 -0.21295926 0.21538883 -0.32178226
0000a0 16 c4 00 be 32 30 a5 3d 38 72 46 b9 6b 15 39 be
       -0.12574801 0.08065833 -0.00018925301 -0.18074577
0000b0 82 41 83 bc 4b cd 8c be 02 1a 9d 3d 98 4d 64 bd
       -0.016022447 -0.27500376 0.07670976 -0.05573806
0000c0 cb 58 e5 3c c7 82 a2 3b 96 9f cb 3a b3 da 1c 3e
       0.027996441 0.0049594375 0.0015535231 0.15317802
0000d0 00 a1 1c 3f 6f 09 ad 3c 60 db 2f 3b 91 ad 6a 3d
       0.61183167 0.021122662 0.0026833639 0.057294432
0000e0 0c 7c f3 bd a7 73 10 be ee 86 9e be a0 fc 91 36
       -0.118888944 -0.14106618 -0.30962318 4.350746e-06
0000f0 87 58 15 bc f5 9c 51 be 58 3c b0 3e b3 c5 13 bd
       -0.009115345 -0.2047003 0.3442104 -0.036077213
000100 11 2c db 3d 0a 60 2b bd 15 91 3d 3e e8 ec 67 be
       0.107017644 -0.041839637 0.18512376 -0.22648966
000110 cc 2c 24 be 1b b2 22 3d 34 0e c4 be 19 37 64 be
       -0.16032714 0.039720636 -0.38292086 -0.22286643
000120 c3 2e 80 3e 3f 36 3a 3e 40 ee be be db ef eb be
       0.25035676 0.18184756 -0.37291145 -0.46081433
000130 b6 07 a5 3e 69 5f 50 be b4 c5 43 3d f7 03 ae be
       0.32232445 -0.20348896 0.047795966 -0.339874
000140 3b 1e 45 3e 1b a3 23 3d c9 75 1d 3c ee b8 5d bd
       0.19249813 0.03995047 0.009610602 -0.05413144
000150 e1 6f 49 3e 6a 4f ef be 66 87 4c be 51 dc 27 3e
       0.19671585 -0.46740276 -0.19973525 0.16392638
000160 68 47 a7 3e ad ba 04 be 91 85 ef 3d 21 a1 ac 3e
       0.32671666 -0.12961836 0.11695398 0.33716682
000170 13 6e fa 3e d6 e8 c6 be 6a 35 23 bb 93 61 60 3d
       0.48912105 -0.38849515 -0.0024903663 0.054780554
000180 1c 36 e1 39 a3 27 8b 3e 36 8f 31 bc b0 be 2d be
       0.0004295566 0.27178678 -0.010837367 -0.16967273
000190 6e 46 63 3e cb 81 97 3e 0d e9 1e 3e 9b 74 e4 be
       0.22194836 0.29591212 0.1551859 -0.44620213
0001a0 16 3d 25 3e 1b fa 61 bd c3 9c 82 bd 59 6e 85 3e
       0.16136584 -0.05517016 -0.06377556 0.2606075
0001b0 30 bf 9e 3b d4 ff 49 be 4c 3d 12 be a5 de 53 3e
       0.0048445687 -0.19726497 -0.14281195 0.20690401
0001c0 9b 10 a1 3e 7c cf a5 3e 0a 0c 33 3e 22 a4 af 3c
       0.3145798 0.3238486 0.17485061 0.02144057
0001d0 dc dc 92 be 35 7c ae 3e 06 24 65 be 66 87 66 be
       -0.28684127 0.34079137 -0.22377023 -0.22512588
0001e0 92 b7 97 3e a0 0e 3d be 61 11 be 3e 66 e9 84 3d
       0.2963224 -0.1846261 0.37122634 0.0648983
0001f0 fa 7a f6 3d 28 cd 4e be c6 a6 a2 3e ff d7 c4 bd
       0.12035175 -0.20195448 0.31767863 -0.096115105
000200 d7 e3 9d be f9 42 6e 3e 68 db e6 3d 78 44 26 3d
       -0.3083789 0.23267736 0.11272317 0.04059264
000210 33 9d 8b bc 46 4b c4 bc 63 ab bd 3e 83 92 d3 bd
       -0.017042732 -0.023961674 0.3704482 -0.10330679
000220 5d 1d 76 bc 22 3d e8 3d b6 d3 a6 be 60 1e 8b 3e
       -0.015021649 0.11339785 -0.32583398 0.27171612
000230 55 fc d0 3e 04 f2 b8 3e 89 f2 10 bd d9 e5 b9 3d
       0.40817514 0.36122143 -0.03538755 0.09077043
000240 79 44 6e 3e 0b 09 e9 bd d3 df 26 be b2 0b af 3e
       0.23268308 -0.11378678 -0.1629632 0.3418861
000250 93 f2 ab 3e 67 89 50 3e 30 eb dd 3d b6 9c 8f 3e
       0.33583507 0.20364915 0.10835874 0.28049248
000260 fc b0 83 3d 91 71 bb 3e e0 5f 3e be 5d 3b 92 3e
       0.064302415 0.36610082 -0.18591261 0.28560916
000270 fb 37 ab be cc d9 1c be fb da 21 bd 3b bf 11 3e
       -0.33441147 -0.15317458 -0.039515477 0.14233105
000280 72 f5 07 3f 52 3f 01 be 2c ec 43 bb cd 75 86 3d
       0.53108895 -0.12621811 -0.0029895408 0.065654375
000290 73 df 16 be f7 36 c7 bd 0a 5e b8 be ff ca bc be
       -0.14733677 -0.097272806 -0.36009246 -0.36873624
0002a0 a7 a6 f2 bc 29 ee 33 be e9 25 e9 3e 7c d8 c8 3d
       -0.029620482 -0.1757132 0.45536736 0.09806916
0002b0 c4 12 bf bd 2f 42 8b be 28 fb 13 bb c4 43 c3 3e
       -0.09329751 -0.27198932 -0.002258012 0.3813764
0002c0 08 ad 56 be 1a 4f 84 3e 0e 48 8c bd 95 a7 cf 3d
       -0.20964444 0.258416 -0.06849681 0.101393856
0002d0 56 41 f8 3d 09 14 da be 6e 85 cc be 9e 59 93 be
       0.12121837 -0.4259341 -0.3994555 -0.2877931
0002e0 a2 12 5c 3e e2 8e 9f 3e f5 15 53 bd cd 47 67 be
       0.21491483 0.31163698 -0.05153461 -0.22585984
0002f0 47 3c d7 3e 9d e3 89 bd 27 33 9c 3d ef 42 8d be
       0.42038175 -0.06732867 0.07626944 -0.2759013
000300 70 95 15 3e fb f0 92 bc 4b 85 e4 3e 2b 19 d2 bd
       0.14607787 -0.017937174 0.44632944 -0.10258707
000310 27 3f c8 be 67 2a 2b 3d b3 cc 8c bc a9 92 04 be
       -0.3911068 0.041788485 -0.017187452 -0.12946571
000320 f1 fe 3c be 65 59 17 3e 72 23 ba be 8a 20 8b 3c
       -0.18456627 0.14780195 -0.36355168 0.01698329
000330 91 0d c3 3d 1b ed 2e 3e 4b 86 18 3d 4b de 81 be
       0.09524072 0.17082636 0.037237447 -0.2536491
000340 b1 c8 b0 3e 57 c3 0d be ce 2f c3 3d 06 32 71 3d
       0.34528115 -0.13844047 0.095306024 0.058885597
000350 3c 86 3c 3c 5e 51 d2 3e b1 73 d8 bd b9 8b 08 bd
       0.011506613 0.41077703 -0.105689414 -0.033336375
000360 5a 32 9c bb 89 6f d4 bd 22 b4 c1 bd 6e 80 a0 be
       -0.0047667446 -0.10372836 -0.09458186 -0.31347984
000370 6a 01 1b 3f e9 e0 78 bc 71 4a 28 be 05 28 30 be
       0.6054903 -0.0151903415 -0.16434647 -0.17202766
000380 3c 1f a6 38 7b 97 59 be 46 6b c1 3d e8 96 d1 bd
       7.921315e-05 -0.21249191 0.09444289 -0.10233861
000390 99 0c 09 3e b2 a4 0e 3e 7b 40 a2 be 84 d6 5d be
       0.13383712 0.13930014 -0.3168982 -0.21663862
0003a0 08 4c b9 3e b0 4c 83 3d 2e 67 de 3d 56 12 b4 bd
       0.3619082 0.06411111 0.10859524 -0.0879256
0003b0 6d 5d 99 bd 1f b3 b1 3e df 3c 7b 3e 04 9d 71 3e
       -0.07488523 0.3470697 0.24534939 0.23595053
0003c0 55 74 8c 3d 81 e2 cf 3e 0d 0a 96 3e a0 ae 08 bd
       0.06858126 0.40602496 0.29304543 -0.03336966
0003d0 07 26 79 bc e8 13 3e be e8 40 98 3d 04 f0 96 3e
       -0.01520682 -0.18562281 0.07434255 0.29479992
0003e0 0d 3c d6 3e 15 c9 c7 bd 9a b2 a3 be af 8b a6 3d
       0.4184269 -0.0975515 -0.319722 0.08132111
0003f0 b8 09 2a be 7d be 2a 3e 83 04 05 3f a9 40 bb 3d
       -0.1660527 0.16674228 0.5196001 0.09143192

bias f4 [200]
000000 c1 98 4f 3d 9e 26 cc ba 56 1b 72 be 8f 2b 2b be
       0.050682787 -0.0015575474 -0.2364324 -0.16715835
000010 7a bf b2 bd ba 42 17 be 6f 5a c9 3e f7 b4 e2 be
       -0.087279275 -0.14771548 0.39326808 -0.4427869
000020 e6 fa 77 be f0 a5 b9 be ad 80 93 be 9b f3 e7 be
       -0.24216804 -0.36259413 -0.2880911 -0.45303044
000030 64 91 86 be 3d 82 b5 3e ce 8f 68 bd 3c d4 ed 3c
       -0.262828 0.35450926 -0.056777768 0.029031865
000040 7f 15 df 3d 29 e9 30 be ef 5a 86 be 83 12 76 3e
       0.10892772 -0.17276444 -0.26241252 0.24030499
000050 e4 c3 96 3e db 6c 07 bf 1a 5f ff be 86 c5 a1 3e
       0.29446328 -0.52900475 -0.49877244 0.3159601
000060 1e 0b 80 be 4a 13 f2 be 3b 27 3a 3e e5 3a f5 bd
       -0.25008482 -0.4728034 0.18179028 -0.11974124
000070 8c bc d4 be dc 3b 16 3e cd ee a7 be 4f 8f 81 3c
       -0.415501 0.14671272 -0.32799378 0.015815405
000080 f4 39 91 3e 18 01 ab 3d 06 33 ce bd a3 69 90 3e
       0.28364527 0.08349818 -0.10068326 0.28205594
000090 39 94 ed be 83 46 cb be 72 61 24 be d7 2b f0 be
       -0.46402147 -0.39702234 -0.16052797 -0.46908447
0000a0 76 f8 a2 3d df 3c 62 3e 29 b6 cf be d2 fb 1b be
       0.079575464 0.22093533 -0.40568665 -0.1523278
0000b0 87 25 79 be 3d 2f 10 be 36 eb 1a 3b a1 6d 9c be
       -0.24330722 -0.1408052 0.0023638732 -0.3055239
0000c0 a7 97 8c be 72 e2 aa 3c 58 2a b8 be 5d 60 bf be
       -0.27459452 0.02085993 -0.35969806 -0.37378207
0000d0 1c f4 25 bd 3d 0e c5 3d 65 91 31 3e bd 2a 13 3e
       -0.040516004 0.09621856 0.1734062 0.14371772
0000e0 bc 22 8f be 8b 36 91 3e 1b ac 9a be e3 8a 01 bd
       -0.27956188 0.28361925 -0.3020943 -0.031626593
0000f0 d9 f4 7a 3e a9 81 5d be 6d 2d 0a bf fb 6c d0 3c
       0.24507464 -0.21631493 -0.53975564 0.025442591
000100 e2 a7 74 bd c6 e4 95 3e a7 ed a6 3d 01 4b d3 be
       -0.059730418 0.29276103 0.08150797 -0.4126816
000110 8a e5 0c 3e 4e 86 82 be 8f 38 9b be 54 60 c0 be
       0.13759437 -0.2549309 -0.30316588 -0.37573493
000120 0a 29 43 3e 50 37 98 be 35 5d 6c bd 35 ad d6 bd
       0.19058624 -0.297297 -0.057706077 -0.10482255
000130 c5 b8 bc be dc 43 59 3c 2f 65 88 be 77 8b ca 3e
       -0.36859718 0.013260808 -0.26639697 0.39559528
000140 6f af 9d 3e c9 f5 27 be 94 74 22 3e 5a 43 4c 3e
       0.30797908 -0.16402353 0.15864784 0.19947568
000150 dc 4c 9b be fe 94 a9 3e d8 d9 44 3d 04 f2 e6 be
       -0.30332077 0.33121485 0.048059314 -0.45106518
000160 54 e2 85 3d 2b 8e 81 be a8 bf 8e be 4f da 7b be
       0.06537309 -0.25303778 -0.27880597 -0.24594997
000170 99 68 bf be b1 e3 ae 3d 3f 55 f0 3c 4a fe 06 be
       -0.3738449 0.085395224 0.029337524 -0.13182941
000180 78 5b 6d 3e 6a 22 9a 3e 84 22 19 be 3b a2 5e 3e
       0.23179424 0.3010438 -0.14954573 0.21741574
000190 42 c5 80 3e 38 c2 bb bd 06 25 20 be 87 72 39 3d
       0.25150496 -0.09167904 -0.15639123 0.045275237
0001a0 e8 86 82 bd 3a 7f af be 5e 1b 0d be e6 19 4a be
       -0.063733876 -0.34276754 -0.13779971 -0.19736442
0001b0 88 79 6e 3e 68 ab 5d 3e 64 3e c2 be f0 17 b7 3e
       0.23288548 0.21647418 -0.37938225 0.3576045
0001c0 9c 92 46 3e 22 3a aa be 6c 3d 9a 3e 23 16 96 3e
       0.19391865 -0.33247477 0.30124986 0.29313764
0001d0 5a d1 ae 3d 87 af 53 3e c9 b1 74 be 15 44 5e 3e
       0.085360244 0.20672427 -0.23895945 0.21705659
0001e0 bc 0f ea 3d b3 da f7 3c 71 a4 80 bd 84 cc 72 3e
       0.11428782 0.030255651 -0.06281365 0.23710829
0001f0 5a e8 01 bf 2d 64 e5 be d2 2a 8e 3e 24 db 1a 3a
       -0.50745165 -0.4480299 0.27767044 0.0005907288
000200 5a 3a e9 bb be bf f2 3c 17 6d 9e be cb 19 46 3e
       -0.0071175518 0.029632445 -0.30942604 0.19345777
000210 de bd 27 3d 9e d0 d6 3d 43 f0 1c 3d 8e 24 51 bd
       0.040952556 0.10489009 0.03831507 -0.051060252
000220 09 2d 6f 3e fd 67 eb bd b0 2d 32 be 1a b6 68 be
       0.23357023 -0.114944436 -0.17400241 -0.22725716
000230 4d 55 18 3e 43 e5 96 3e 15 b8 9f 3e ac cc 81 3e
       0.1487629 0.29471788 0.3119513 0.25351465
000240 af b9 36 3e 16 e6 76 bd 65 e6 47 be 51 e3 2f 3e
       0.1784427 -0.06027802 -0.19521482 0.17176558
000250 18 a8 fb be ad a4 2c be a9 d3 28 be 27 ff a9 be
       -0.49151683 -0.16859694 -0.16486992 -0.33202478
000260 ad bc f8 be 3a 5e 1f be 26 58 c7 be b1 c9 6a bd
       -0.48581448 -0.15563288 -0.3893444 -0.057321254
000270 2f 1f 46 bc 91 57 3b 3d 3d 0f d0 3e 8f a1 86 bc
       -0.012092396 0.045737807 0.40636626 -0.016434459
000280 19 de 5c 3e ed a8 4b 3e 2f 2d 72 3e f3 45 e9 be
       0.21569099 0.19888659 0.23650049 -0.4556118
000290 2f ac bd 3e 80 75 86 3e dd 89 b6 be b0 f4 cb be
       0.37045428 0.2626152 -0.35652056 -0.3983512
0002a0 61 c0 03 3d 6f ba 11 bf b3 8f 83 3e 1e 12 7e bd
       0.03216589 -0.569251 0.2569557 -0.062028997
0002b0 e7 6b bf bd 8b 54 8c 3d f0 02 d8 be 51 e4 0d be
       -0.093467526 0.06852063 -0.4218974 -0.13856627
0002c0 08 9b 18 3d 18 42 8f 3e c1 f8 1b be 90 5f 9a be
       0.037257224 0.27980113 -0.15231611 -0.30151033
0002d0 4d ef 62 3e 72 7e 9f 3e e0 4e 42 be a4 70 3a be
       0.22161599 0.31151158 -0.18975401 -0.18207031
0002e0 8a 28 9c be 30 13 06 bf 4e 0e 4d be 38 7b f7 be
       -0.3049968 -0.5237303 -0.20024988 -0.48336196
0002f0 ed 50 f2 be 22 44 d2 be 59 c5 39 bd 07 2f b7 3e
       -0.47327366 -0.41067606 -0.04535422 0.35778067
000300 b4 22 ae 3e 36 7a ca bd 48 6f 54 be ce a3 72 3d
       0.3401085 -0.09886591 -0.20745575 0.059238248
000310 48 a5 32 be c1 4a fc 3d af 26 01 be f4 8e 8d 3e
       -0.17445862 0.12318946 -0.12612413 0.27648127

weight f4 [200]
000000 39 f8 68 3f f6 4c 7c 3f be 41 65 3f 6c 33 65 3f
       0.9100376 0.98554933 0.8955344 0.8953159
000010 21 2d 78 3f 74 fb 72 3f 80 05 68 3f 01 8b 9e 3f
       0.9694386 0.94914937 0.9063339 1.2386171
000020 01 82 9e 3f 01 af 8e 3f 7e 4e 75 3f 79 eb 87 3f
       1.2383424 1.1147157 0.95822895 1.0618736
000030 d6 ad 6b 3f 5c 72 67 3f 23 f5 6f 3f 6d b9 73 3f
       0.9206213 0.90408874 0.93733424 0.9520481
000040 d1 c3 74 3f 9b bf 67 3f 8d fe 7e 3f e5 12 6a 3f
       0.9561129 0.9052674 0.99607164 0.9143508
000050 b1 cc 64 3f 3a c6 7c 3f 54 a8 86 3f fe 93 58 3f
       0.89374834 0.9873997 1.052012 0.8460082
000060 88 5a 67 3f 93 51 6f 3f fe 07 72 3f 99 4b 7d 3f
       0.90372515 0.9348385 0.94543445 0.9894348
000070 b4 11 76 3f af 33 6e 3f ee e7 77 3f 79 d6 6d 3f
       0.9612076 0.9304761 0.9683827 0.92905384
000080 2a 91 6e 3f 67 b6 7b 3f 44 dd 5f 3f 9c 66 66 3f
       0.9319025 0.983252 0.87447 0.9000032
000090 03 ff 7d 3f dc d1 8a 3f 1a 7b 6d 3f 58 81 80 3f
       0.9921724 1.0845294 0.92765963 1.0039473
0000a0 af 4e 6a 3f 6b a5 74 3f 7f cf 75 3f cd 17 76 3f
       0.9152631 0.9556491 0.9601974 0.9613007
0000b0 68 92 66 3f 75 ba 6a 3f 37 d2 71 3f 28 ae 6b 3f
       0.9006715 0.9169076 0.9446139 0.92062616
0000c0 91 01 6f 3f 9d bd 8c 3f bd b2 9a 3f 84 90 84 3f
       0.93361765 1.0995365 1.2085797 1.0356603
0000d0 d7 31 6f 3f fd 35 70 3f ea 32 7a 3f f1 1f 6c 3f
       0.93435425 0.9383238 0.9773394 0.9223624
0000e0 5c 8f 83 3f 1e ab 72 3f 98 8e 69 3f 0d e9 75 3f
       1.0278125 0.94792354 0.91233206 0.9605873
0000f0 ac 03 6b 3f cb e7 76 3f e4 b4 7f 3f 64 72 74 3f
       0.9180248 0.9644744 0.9988539 0.95487046
000100 e7 7a 7c 3f a1 70 67 3f 56 0f 6d 3f 95 91 7a 3f
       0.98625034 0.90406233 0.92601526 0.9787839
000110 fa 32 64 3f 6e 94 60 3f da a7 7d 3f fb 08 85 3f
       0.89140284 0.87726486 0.99084246 1.0393366
000120 19 65 7b 3f 94 06 6e 3f c0 f1 7d 3f f9 18 7f 3f
       0.9820114 0.9297879 0.99197006 0.9964748
000130 83 11 9d 3f 5e 55 6e 3f f0 0c 63 3f 81 18 62 3f
       1.2270969 0.9309901 0.88691616 0.8831864
000140 98 fe 67 3f 32 a3 6f 3f 38 a6 69 3f be f4 70 3f
       0.90622854 0.9360839 0.91269255 0.94123447
000150 ef 97 61 3f ea 6e 66 3f 52 96 71 3f 06 55 6b 3f
       0.8812246 0.9001299 0.94369996 0.9192661
000160 46 dc 60 3f 57 0c 71 3f 79 65 83 3f b2 ac 6e 3f
       0.8783611 0.94159454 1.0265342 0.9323226
000170 7b 19 65 3f 7a 07 68 3f 73 66 64 3f f3 c0 79 3f
       0.89492005 0.9063641 0.89218825 0.9756004
000180 a1 6b 7f 3f d8 40 63 3f 66 fa 71 3f fc b9 6e 3f
       0.99773604 0.8877082 0.945227 0.9325254
000190 41 80 6a 3f ea 05 7d 3f 99 0f 80 3f 07 3d 68 3f
       0.9160195 0.9883715 1.000476 0.9071812
0001a0 13 b7 6f 3f 42 20 96 3f aa 3c 8a 3f 4b 95 88 3f
       0.93638724 1.1728594 1.0799763 1.0670561
0001b0 de 02 69 3f e2 ef 6f 3f ef b0 83 3f 7c 9b 6a 3f
       0.9102 0.9372541 1.0288371 0.916435
0001c0 e8 87 6f 3f ef e8 98 3f 54 a3 5e 3f 62 29 71 3f
       0.9356675 1.1946086 0.8696797 0.9420377
0001d0 d5 51 6d 3f 94 13 7c 3f d7 90 77 3f b6 0b 78 3f
       0.9270299 0.98467374 0.96705383 0.9689287
0001e0 7d 8b 6b 3f 3d 32 63 3f 9e df 6b 3f c2 09 74 3f
       0.9200972 0.8874853 0.9213809 0.9532739
0001f0 cc 9d 8b 3f 79 c8 73 3f 0f ae 82 3f ef 6e 82 3f
       1.0907531 0.9522777 1.0209368 1.0190104
000200 62 bb 62 3f e8 03 6d 3f 54 f9 89 3f 4f 91 61 3f
       0.88567173 0.92584085 1.0779214 0.8811235
000210 84 d8 76 3f 9a e2 79 3f 96 73 77 3f 3b e2 6d 3f
       0.96424127 0.9761139 0.96660745 0.92923325
000220 09 c3 72 3f 52 34 79 3f cb ed 82 3f 0e 0d 69 3f
       0.9482885 0.9734546 1.0228819 0.91035545
000230 ec 6e 6b 3f 83 55 7a 3f 6c 9a 60 3f 89 60 6a 3f
       0.9196613 0.9778673 0.8773563 0.9155355
000240 20 c7 51 3f ce f3 77 3f d0 89 6d 3f da e9 72 3f
       0.81944466 0.9685639 0.9278841 0.9488808
000250 75 8a 88 3f 8d 69 72 3f 66 29 78 3f 88 9d 6a 3f
       1.0667254 0.9469231 0.9693817 0.91646624
000260 bc d0 89 3f 2b 10 86 3f ec 28 6c 3f e8 f5 67 3f
       1.0766826 1.0473684 0.9224994 0.906096
000270 6a e9 70 3f 09 de 7a 3f a1 35 64 3f 99 46 7f 3f
       0.9410616 0.9799505 0.8914433 0.997171
000280 b4 a4 79 3f a3 77 74 3f fb ff 5d 3f 46 06 85 3f
       0.9751694 0.9549505 0.8671872 1.039254
000290 82 11 76 3f b7 7d 81 3f a5 77 84 3f a8 72 80 3f
       0.96120465 1.011649 1.0349013 1.003499
0002a0 cf 0a 61 3f f6 2c 81 3f 39 44 70 3f 7e 46 69 3f
       0.8790712 1.0091846 0.938541 0.9112319
0002b0 a4 e5 84 3f ff 9a 5e 3f f7 1f 8a 3f e2 85 a2 3f
       1.0382581 0.86955255 1.0791005 1.2697108
0002c0 7a 4b 8f 3f 7d 7f 77 3f 8c 83 60 3f 2f 8b 9d 3f
       1.1194909 0.96678907 0.87700725 1.23081
0002d0 e6 bb 6a 3f 19 77 6e 3f 62 08 7b 3f 9c a3 9b 3f
       0.9169296 0.9315048 0.98059666 1.2159305
0002e0 6c 1b 63 3f 62 9c a4 3f 4b 04 74 3f 4a 17 79 3f
       0.8871372 1.2860224 0.9531905 0.9730116
0002f0 c2 2c 69 3f 78 ab 81 3f 45 be 75 3f ad 6d 69 3f
       0.9108392 1.0130453 0.95993453 0.91182977
000300 c6 48 63 3f 01 f8 7e 3f d6 8b 80 3f 65 99 6f 3f
       0.8878292 0.99597174 1.0042675 0.93593436
000310 7c 8b 66 3f 8b 71 80 3f 8f 73 9d 3f 8b 1d 64 3f
       0.90056586 1.003465 1.2300891 0.8910758

bias f4 [200]
000000 12 58 e4 3d c7 0a 54 be 26 82 c0 bd d2 d7 df bd
       0.111496106 -0.20707236 -0.09399824 -0.10929836
000010 af ed 24 bd 77 c6 d5 3d 5e 32 24 be 9a fd bd 3c
       -0.040265735 0.10438245 -0.16034839 0.023192216
000020 39 70 2c 3e 04 e7 5c 3e fb 98 cb bd 5a dc 7c 3e
       0.16839685 0.215725 -0.09941288 0.24693432
000030 b6 d4 e8 bd 42 e0 3e bd fd a8 1f 3e 4f f5 a4 bd
       -0.113686964 -0.046600588 0.15591808 -0.080546014
000040 4c fb 12 be 89 52 b8 3d 26 3e 34 3d 49 62 f7 3d
       -0.14353675 0.09000117 0.044004582 0.12079293
000050 66 76 64 bd 04 6c 9b bd 68 8c 90 3d 07 2d 6e bd
       -0.055776976 -0.07588962 0.0705803 -0.05814841
000060 26 cc 1e bc 19 11 68 3e 90 0a 4b 3d 11 e2 44 3e
       -0.0096922275 0.22662772 0.04957062 0.19226862
000070 59 4c 28 bd 92 36 b2 3d 6c 10 2b be a8 59 0f bd
       -0.041088436 0.08701815 -0.16705483 -0.034997612
000080 62 d6 db bd 8a 43 47 3e 0b 05 10 be dd e4 05 be
       -0.1073425 0.19459358 -0.14064424 -0.13075586
000090 54 57 a2 bd f3 bd db bb 12 3f a8 bd 5d 01 4b 3e
       -0.07926813 -0.0067059933 -0.08215155 0.19824739
0000a0 c8 85 47 be 24 a4 f8 bd d5 1f 03 bd 9f 87 22 3e
       -0.19484627 -0.12140682 -0.03201278 0.15872048
0000b0 17 96 9c bd 69 b4 a0 bd 54 aa 8d 3d 2a b8 f0 3d
       -0.07645815 -0.078469105 0.06917253 0.117538765
0000c0 b0 a1 4a 3e 4e c2 29 3e e0 ec c7 3d 82 f4 67 3e
       0.19788241 0.16578028 0.09761977 0.22651866
0000d0 ff d0 e1 3c 78 06 30 3e 58 c9 eb 36 0f 8f 93 bb
       0.027565477 0.17189968 7.0269853e-06 -0.004503138
0000e0 ff 40 e7 bd 3e 0f 23 be 52 28 54 3e 2e 04 9b 3d
       -0.11291694 -0.15923783 0.20718506 0.075691566
0000f0 d0 f8 0f 3e 6d a3 24 be b3 3e a1 bd a9 d9 87 bd
       0.14059758 -0.16077967 -0.07873287 -0.06633312
000100 af 00 55 3e b8 7e d5 bd 59 1c 1f 3e 7a 29 86 bd
       0.20801042 -0.1042456 0.15538158 -0.0655088
000110 34 cd 38 be 3d af cf 3d d8 20 1b 3e ed 46 db bc
       -0.18047029 0.10140846 0.15149248 -0.026767218
000120 46 9c a9 3d f8 3f d0 3d 9c 11 7c bd 65 b0 8d 3e
       0.0828176 0.10168451 -0.06154023 0.2767364
000130 ab 7f aa bd 5b 85 9a bd 03 6b 90 bd 80 50 e5 3d
       -0.08325132 -0.07544967 -0.07051661 0.11196995
000140 a2 93 cf 3d c3 9e 1b bd 4b 1c f9 3d ec cd 5d 3e
       0.101355806 -0.037993204 0.121635996 0.21660584
000150 d5 fe ca bc b6 3e 2e bd cb 18 be bc fc 7c 59 be
       -0.024779717 -0.042540275 -0.023205182 -0.21239084
000160 38 96 cc 3d 29 fe 34 3e fe 45 e4 3c e3 21 b7 bd
       0.099895895 0.1767508 0.027865406 -0.0894201
000170 2a ad 2e bc 24 f9 42 3e f3 26 e1 bd d4 7e 5c 3e
       -0.010661403 0.19040352 -0.10993757 0.21532756
000180 8c c2 60 3b cc d4 75 be 1e 48 83 3e df 49 88 bd
       0.0034295646 -0.24006957 0.2564096 -0.06654715
000190 49 f7 d6 3d a6 0e 34 3e f9 d0 27 3e f0 d6 a3 bc
       0.10496385 0.17583713 0.1638831 -0.019999951
0001a0 5a a9 d8 bd e0 c3 a6 3c 17 ec 00 3d 94 fd 92 3d
       -0.10579176 0.020357072 0.031475153 0.071772724
0001b0 ea 6c 6b 3c 8d 34 f0 3c ee 12 83 bd 45 ae 9c bd
       0.014369229 0.029321933 -0.06400095 -0.07650427
0001c0 e4 8d 7f 3d 84 c2 b4 39 fe 29 01 be 82 a6 26 3d
       0.062391177 0.000344772 -0.12613675 0.040686138
0001d0 a0 b0 ef bd bb e9 80 bd 63 c1 bd bd f9 cd 87 3d
       -0.117036104 -0.062945805 -0.09265401 0.06631083
0001e0 36 65 79 3d 93 e5 e6 bd bc b7 e2 bc 02 69 11 be
       0.060887538 -0.112742566 -0.027675502 -0.14200214
0001f0 98 6a 18 bd 52 8a ba bd d5 3b ab 3c 8a 27 0d bd
       -0.03721103 -0.09108414 0.020902554 -0.034461536
000200 3b 9a d2 bd c0 61 bc bc bd 17 e6 bc 2d b4 df bd
       -0.102833234 -0.02299583 -0.028087491 -0.10923038
000210 08 34 22 bd f8 e0 1f 3d 89 58 0e 3e 66 54 e9 3d
       -0.039600402 0.039032906 0.13900961 0.11393051
000220 77 cf a1 3d bd e6 34 3e 5c 56 63 3e 82 cc f8 bd
       0.07900899 0.17666145 0.22200912 -0.12148382
000230 75 32 54 3e 56 9d 41 3e 7a 3d 12 3e e0 71 03 be
       0.20722373 0.18907675 0.14281264 -0.12836409
000240 2b 63 fd bd 4d c8 c4 3d 28 4e e9 bd 1c ef 7d 3c
       -0.123724304 0.09608517 -0.1139186 0.015498903
000250 9b 4b 5f 3e 45 22 bf bd 0a 87 14 bd 56 4d 85 bd
       0.21806185 -0.09332708 -0.036261596 -0.06508891
000260 b3 61 51 bd 48 91 05 3e da 77 4d bd c9 ef 81 3d
       -0.051118564 0.13043702 -0.050163127 0.063445635
000270 b7 39 c4 bd d3 b2 1d 3b d0 3a ad bd ab 5e 30 bd
       -0.09581321 0.0024062886 -0.08458483 -0.043059032
000280 67 e1 28 be 4f 12 c4 3d ef bd 6e 3d 8c 2f 0f bd
       -0.16492234 0.095738046 0.058286604 -0.034957454
000290 36 ff 52 3d 63 b4 37 3e f6 cb 25 be 01 7b 08 be
       0.05151292 0.17939906 -0.16191086 -0.13328172
0002a0 0a d0 88 3c 50 5b 16 3e 35 34 fa bd 70 61 87 3e
       0.016700763 0.1468327 -0.12216989 0.26441526
0002b0 48 12 06 3e 1a 27 90 3d 4c 37 3e 3e a3 04 78 3d
       0.13092911 0.07038708 0.18575782 0.060551297
0002c0 32 d7 4b 3e 30 2f 22 3d a5 ec 22 bd bc cf 10 be
       0.19906309 0.039595783 -0.039776463 -0.14141744
0002d0 3c cb d4 3c b1 df 33 bd 5b 46 24 3e f4 da 4c be
       0.025975816 -0.0439145 0.16042463 -0.20005399
0002e0 1f 7c 8a 3d bf 2f 9f 3d 29 e4 bb bc ac 5f 10 3e
       0.067619555 0.07772779 -0.022935944 0.14098996
0002f0 55 d1 b1 3c 17 ff 9b 3b 1b 7b b1 3d 12 14 42 3c
       0.021706263 0.0047606337 0.08666059 0.011845605
000300 a7 f4 f9 bd fe 05 b5 bc 72 8c 72 3d 24 92 37 be
       -0.12204867 -0.022097584 0.05921597 -0.17926842
000310 dd b7 55 be 8b 2e 64 3e e6 5e 23 be 06 b5 d7 bc
       -0.2087092 0.2228338 -0.1595417 -0.026331436

running_mean f4 [200]
000000 c4 8a bb 3d 30 a0 46 3e 22 66 9a 3d 63 bd aa 3d
       0.09157327 0.19397044 0.075390115 0.08336904
000010 2f c6 1b 3e a5 ec 52 3d b3 5b d1 3e 8d 87 d1 3b
       0.1521232 0.051495213 0.40890273 0.0063943327
000020 ec 59 1b 3c fa bf 2a 3d 31 90 1c 3d 03 f5 ae 3d
       0.009481888 0.04168699 0.03822345 0.08542826
000030 5d de dd 3e ec 46 d9 3e f0 a8 99 3e e0 c7 b3 3e
       0.43333712 0.42436922 0.30011702 0.3511343
000040 10 cc 0d 3e 16 4b 3c 3e 4a f4 03 3e 43 7f 05 3f
       0.13847375 0.18388018 0.12886158 0.5214731
000050 38 6f 1e 3f b8 ae 12 3e 6e c3 aa 3c 8b 22 a3 3e
       0.61888456 0.14324462 0.020845141 0.31862292
000060 ae 53 6c 3e 82 b4 ef 3d 8a 70 2c 3e 77 5a 03 3e
       0.23078796 0.11704351 0.16839805 0.12827478
000070 98 a4 47 3d 76 38 85 3e 5e bb e4 3d 08 48 24 3e
       0.048740953 0.2601964 0.1116855 0.16043103
000080 a4 f9 05 3f 0e 63 87 3e ac 18 80 3e 9c 6c ee 3e
       0.52334046 0.2644276 0.25018823 0.46567237
000090 fd 13 b4 3c 36 00 07 3b 60 44 5d 3e 51 28 98 3d
       0.021982187 0.002059949 0.21608114 0.07429565
0000a0 c0 f0 82 3e 98 74 ca 3e 4c e6 6d 3d 1d 00 3a 3e
       0.25574303 0.3954208 0.058080956 0.18164106
0000b0 5d 7f 29 3e 6c 25 18 3d b0 e3 84 3e 05 40 48 3e
       0.16552491 0.037145063 0.25954962 0.19555672
0000c0 55 1c 4b 3d a5 70 08 3e 95 3c d4 3b bc 98 ac 3c
       0.049587566 0.1332422 0.0064769485 0.021068923
0000d0 52 bc db 3c 1b 35 07 3f 42 11 72 3e 83 7b 90 3e
       0.026823197 0.5281541 0.23639396 0.28219232
0000e0 4e 65 4a 3c fd 15 bb 3e 78 9d 8b 3e 82 9f 6f 3e
       0.0123532545 0.36540213 0.27268577 0.23400691
0000f0 f5 c0 e1 3e f3 48 c2 3d 9b 66 92 3b 40 8e 8f 3e
       0.44092527 0.0948657 0.004467798 0.28038216
000100 4c 39 4e 3d ce da cc 3e 7b c1 e2 3d 84 6c 83 3d
       0.05034761 0.40010685 0.1107206 0.06417182
000110 18 4f 95 3e 07 96 16 3e 15 21 cc 3d 07 3c 1a 3e
       0.29161906 0.14705668 0.099672474 0.15061961
000120 98 a8 ce 3e 31 01 1c 3e c3 36 eb 3d de a6 45 3e
       0.40363002 0.1523483 0.11485054 0.19301936
000130 18 82 07 3b a8 22 74 3e 0d cd b2 3e 06 06 9e 3e
       0.0020676907 0.23841345 0.34922066 0.3086397
000140 36 67 93 3e 1d 05 90 3e ee 69 d4 3e e6 21 85 3e
       0.2878968 0.281289 0.41487068 0.26002425
000150 62 69 91 3e 6e 13 31 3e 6a 80 11 3e 0b 4b 04 3e
       0.28400713 0.17292568 0.14209142 0.12919252
000160 c8 9f 5e 3e 03 de c5 3c 01 4a 8f 3b 9b 13 75 3d
       0.21740639 0.024153715 0.0043728356 0.05983315
000170 8a 90 e5 3d c2 78 95 3d c9 93 e0 3e b0 4d b9 3d
       0.11209209 0.07298423 0.4386275 0.09048021
000180 ef ec bf 3e cc 89 a0 3e 15 3e 70 3e cc 1d d4 3e
       0.37485453 0.3135513 0.23461182 0.41428983
000190 c1 11 3c 3e 3e 7d 33 3e 42 1c 83 3d 31 99 81 3d
       0.18366148 0.17528245 0.06401874 0.06328047
0001a0 b0 e7 02 3d ea 00 b0 3b 6a f2 5e 3c 3e d7 08 3d
       0.031959236 0.0053712027 0.013607601 0.033408396
0001b0 ca 81 97 3e 13 b8 70 3e 7f db bb 3d 22 d5 7f 3e
       0.2959121 0.23507719 0.09172725 0.24983647
0001c0 cc f4 04 3f 30 69 08 3b 0a da 1c 3f 6f da af 3e
       0.5193603 0.002081465 0.612702 0.3434634
0001d0 a8 5d 98 3e e1 7f c1 3e d1 3b 16 3e b1 df 09 3f
       0.29758954 0.37792876 0.14671256 0.5385695
0001e0 a0 64 98 3e b8 98 9b 3e 71 87 79 3e d4 23 24 3e
       0.2976427 0.30389953 0.24368073 0.16029292
0001f0 18 39 ef 3c c8 b5 3c 3d 2c e0 a1 3e 60 29 43 3e
       0.02920203 0.046071798 0.31616342 0.19058752
000200 ff e4 62 3e 97 6b 3b 3d ac eb 9b 3d 6a 3f be 3e
       0.22157668 0.045756903 0.0761331 0.37157756
000210 41 46 0f 3e a4 05 99 3e 46 67 cc 3e 85 87 b8 3e
       0.13991643 0.29887116 0.3992254 0.36040893
000220 9b eb da 3e 54 b4 4c 3e 9a 9b b0 3d d8 2c a8 3d
       0.42757878 0.19990665 0.08623429 0.08211678
000230 2a 71 7e 3e a8 30 0a 3f 96 04 1e 3f a3 5b e1 3e
       0.24847856 0.53980494 0.6172575 0.44015226
000240 c1 dd da 3e 08 00 24 3e 11 37 3e 3e e2 bd 3f 3e
       0.4274731 0.16015637 0.18575694 0.18724778
000250 17 79 47 3d 3e 8d a3 3e 3f 1f 0d 3d b1 02 77 3e
       0.048699465 0.31943697 0.034453627 0.2412212
000260 6c 09 6d 3c 88 09 bf 3d ae 9d 5c 3e 94 de 8b 3e
       0.014467578 0.0932799 0.21544525 0.2731825
000270 f3 62 12 3e 7b 38 3b 3e b2 65 24 3f ba f9 de 3e
       0.14295559 0.18283264 0.64217675 0.435499
000280 7d 37 b3 3e 66 fe f7 3e 4d 8d 36 3f 97 37 1b 3d
       0.35003272 0.48436278 0.7130936 0.03789481
000290 af b6 97 3e fb 51 bb 3e c4 09 8b 3d 4a 51 2a 3d
       0.29631564 0.36585984 0.06788972 0.04158143
0002a0 fe c8 78 3d ba d7 a9 3d 31 f6 7f 3e 42 0c 58 3e
       0.060738556 0.082931 0.24996258 0.21098426
0002b0 9e 39 bb 3d a4 2c 11 3f 98 3e 69 3d 2f a2 dd 3b
       0.09141849 0.5670874 0.05694446 0.0067637186
0002c0 8b 03 19 3e 18 dc 17 3f 8b d9 66 3e b5 7d df 3a
       0.14942758 0.5932021 0.22543924 0.0017051013
0002d0 de f4 3c 3e c8 6f 7e 3e e0 49 d7 3c aa 7b f6 3a
       0.18452784 0.24847329 0.026280344 0.0018805165
0002e0 61 48 7c 3e 89 ae 25 3c 2d d3 d6 3d 85 77 a3 3d
       0.24636985 0.010112413 0.10489497 0.07981781
0002f0 a9 c5 af 3d 9f 4b b5 3c f6 ab 0a 3e 7d 7e 0f 3f
       0.085826226 0.022130786 0.1354216 0.5605238
000300 2f 51 24 3f 9d a2 d4 3d 85 b9 6b 3e ed 56 80 3e
       0.64186376 0.103825785 0.23019989 0.2506632
000310 c3 b8 1a 3e 38 c8 0e 3e d7 81 a4 3b ca 6d 0d 3f
       0.15109544 0.13943565 0.005020361 0.5524565

running_var f4 [200]
000000 a9 76 ae 3c 4c a6 bf 3d 18 09 1d 3d 23 14 be 3c
       0.021296816 0.093578905 0.03833875 0.023202961
000010 cb b8 95 3d 20 cf 72 3c eb 95 08 3e 7b 83 da 3a
       0.07310637 0.01481989 0.13338439 0.0016671264
000020 ee 6a 3c 3a 60 a9 84 3d e8 bb 33 3c 2f 58 e2 3d
       0.00071875646 0.06477618 0.010970093 0.11051976
000030 f3 1a 90 3e 86 83 97 3d fe 54 cd 3d e1 cc 5f 3e
       0.2814556 0.07398133 0.100259766 0.21855499
000040 21 3d 80 3c b7 04 d9 3d 10 2d 4a 3d e0 aa 32 3e
       0.015654149 0.105966024 0.04935938 0.17447996
000050 be e1 7c 3e 99 ab 6d 3d 56 1b ee 3b 3a c7 53 3e
       0.24695489 0.058024976 0.0072664423 0.20681468
000060 b8 1c 9b 3d f8 26 a5 3d 08 0d 27 3d fe 7c aa 3d
       0.07573837 0.08064073 0.040783912 0.083246216
000070 5a da aa 3c c0 fe a1 3d 2e 93 4c 3d 05 dc 7e 3d
       0.020856071 0.07909918 0.04994505 0.062221546
000080 6a 9a cb 3e e6 ab 63 3e 90 d6 bb 3d 47 11 f5 3d
       0.39766246 0.22233543 0.09171784 0.11966186
000090 e6 96 7a 3b a3 fc e4 39 0e cd 8e 3d e5 74 90 3c
       0.0038236915 0.00043675778 0.06972705 0.017633865
0000a0 29 cd a0 3d d7 c5 88 3e 1f 3a ea 3c a6 3a 63 3d
       0.07851631 0.2671344 0.028592167 0.055475853
0000b0 ba 2c 9c 3d c6 08 0e 3c 29 55 a1 3d 86 72 c6 3d
       0.076257184 0.008669084 0.07877571 0.09689812
0000c0 3e b6 8a 3c 9b e8 75 3c bf 9d 7b 3a 44 54 70 3c
       0.016932603 0.015009071 0.0009598396 0.014668528
0000d0 c1 2e 7c 3b 09 91 67 3e c2 ee 89 3d a1 34 be 3d
       0.0038480016 0.2261392 0.067349926 0.09287382
0000e0 9f 85 cf 3a f6 8b 12 3e 8b 4c 74 3e 8b 51 0f 3e
       0.0015832669 0.14311203 0.23857324 0.1399595
0000f0 5a 27 c2 3e b6 f1 db 3c 23 9f 42 3a 23 54 2a 3e
       0.37920648 0.026848655 0.0007424226 0.16633658
000100 83 bc a6 3c e8 55 c4 3d 85 fb 9d 3d fe 88 7a 3c
       0.020353561 0.09586698 0.07713989 0.015291451
000110 07 0d 02 3e bf 49 5a 3d 57 ab b2 3c ee 60 6f 3d
       0.12700282 0.053292986 0.021810217 0.05844205
000120 91 2c 9b 3e 69 ac a2 3d 86 94 ad 3c 8b 6f 98 3e
       0.3030744 0.07943041 0.021188986 0.297726
000130 72 4e 1c 38 8c 0b de 3d 9f 40 6d 3e 3a ad c5 3d
       3.7266356e-05 0.10842046 0.23169182 0.09652181
000140 4c 84 fb 3d 4a 48 43 3e 55 6a 94 3e 02 29 82 3e
       0.12281093 0.19070545 0.28987375 0.2542191
000150 3e 89 12 3e 12 93 3d 3d b9 d6 78 3d 42 88 44 3d
       0.14310166 0.046282835 0.06075165 0.047981508
000160 61 65 cd 3d 02 dd dd 3b 56 93 a1 3a c7 0b ce 3c
       0.10029102 0.006770731 0.0012327235 0.0251521
000170 13 a5 5a 3d 59 97 89 3c 8e 80 1a 3e 48 ff f6 3d
       0.053380083 0.016795801 0.15088102 0.1206041
000180 ec 1d d4 3d 12 db 2a 3d ed f9 83 3e 55 4e 1e 3e
       0.1035727 0.041712828 0.25776616 0.15459569
000190 66 1e 9d 3d 1f c5 58 3e 88 ee 3c 3c a8 85 47 3c
       0.07671814 0.21168946 0.01153148 0.012177862
0001a0 01 b8 f7 3b 0e 9f 95 3a 1f 10 18 3b a4 e9 96 3c
       0.007559777 0.00114152 0.0023202968 0.018421955
0001b0 bf 93 a8 3d a0 3b df 3d ee 83 46 3d f8 38 e9 3d
       0.08231305 0.109000444 0.04846566 0.11387819
0001c0 59 01 6a 3e 2a 78 be 38 42 c8 49 3e da 22 d5 3d
       0.22852077 9.082288e-05 0.19705299 0.10407038
0001d0 01 b1 7b 3e bd dd 4a 3e e5 f1 fa 3d be 43 4e 3e
       0.2457924 0.19811149 0.12253169 0.20143029
0001e0 30 3f b4 3d 57 26 fe 3d 73 e4 d1 3d 53 86 b2 3d
       0.088011146 0.124096565 0.10248651 0.087170266
0001f0 94 3d 87 3c 68 72 95 3c 21 9c c8 3d ab 9b 65 3d
       0.016508855 0.01824303 0.09795404 0.05605666
000200 d4 d8 53 3d 4b 1f d0 3b f5 e5 5c 3d 7a 8e 10 3e
       0.051720455 0.0063513867 0.05393024 0.1411685
000210 40 fc a8 3d 77 d3 57 3e 9a b3 b0 3e 14 e1 d7 3e
       0.08251238 0.21076761 0.34512025 0.42163908
000220 84 cf 92 3e ad 96 b8 3d 0a 20 84 3d 82 1e 39 3d
       0.28673947 0.09013114 0.064514235 0.04519511
000230 02 ac 68 3e 94 c9 62 3e e6 1c e0 3e 13 96 53 3e
       0.22721866 0.22147208 0.43772048 0.20662718
000240 7e 3b fd 3d a3 1b ee 3d a6 60 b8 3d 9d 06 7a 3d
       0.12364863 0.11626365 0.09002809 0.061041463
000250 6b f1 65 3c b8 76 13 3e ee cd d8 3b 77 35 3b 3e
       0.014034609 0.14400756 0.0066163456 0.18282114
000260 bd 70 84 3b 22 4f 92 3c e4 b1 4e 3e c6 6e fa 3d
       0.0040417598 0.01786 0.20185047 0.122281596
000270 d0 74 04 3d 8f 5a f4 3c 1b 03 0e 3e 2b 90 8b 3e
       0.032337964 0.029828338 0.13868372 0.2725843
000280 92 6e 6f 3e 10 da a3 3e 4c f1 b0 3e b7 bf be 3c
       0.23382023 0.32002306 0.34559095 0.023284776
000290 78 58 34 3e 58 c6 7c 3d b1 4c 25 3d a8 b0 5b 3c
       0.17611873 0.061712593 0.04035634 0.013408817
0002a0 4d b0 8c 3c 97 21 44 3d 07 f4 07 3e 5a 17 60 3e
       0.01717391 0.047883596 0.13276683 0.21883908
0002b0 4f 0e 79 3c 8d d0 b5 3e 20 06 e4 3d 0e 21 bd 38
       0.015201165 0.35510674 0.11133981 9.018379e-05
0002c0 a2 c3 7a 3c ac 21 d1 3e 19 d1 95 3d 17 f7 bf 37
       0.015305432 0.40846002 0.07315273 2.2884034e-05
0002d0 29 9a 68 3d d4 3e 45 3e 65 de 71 3b ce a1 2e 38
       0.056787644 0.19262248 0.003690624 4.1635525e-05
0002e0 11 b4 fa 3d ab ba 80 3b ef a7 ec 3c ee 13 b2 3d
       0.12241376 0.0039285026 0.02888867 0.086952075
0002f0 c7 1a 1e 3d 29 46 c9 3b 68 53 72 3d 2b 23 53 3e
       0.038599756 0.006142397 0.059161574 0.20618884
000300 aa 3d 80 3e ce 61 0d 3d 9e 39 c9 3d be b3 fb 3d
       0.25047046 0.034517102 0.09825443 0.122901425
000310 63 5b 54 3d 44 bd 5e 3e d1 1c 55 38 ca d7 58 3e
       0.051844966 0.21751887 5.0809995e-05 0.21176067

weight f4 [100, 200]
000000 0a db 5e bb 6d 62 c0 3c 53 a6 b7 3c 50 93 13 3d
       -0.003400507 0.023484433 0.022418177 0.03602916
000010 7a 4b 45 3d 75 a0 7e bd b3 44 ee bc 09 7a 92 3d
       0.048167683 -0.062164742 -0.029085493 0.071521826
000020 ff 55 a9 3d fb 28 bb bd 17 89 99 3c b7 1a 06 3d
       0.082683556 -0.09138676 0.018742127 0.03274032
000030 7a 7e a4 bc f2 05 3a bc c1 68 78 3d 60 df 6d 3d
       -0.02007984 -0.011353957 0.060646776 0.058074355
000040 6c 62 48 bd c1 33 57 3c 0c bc d1 3c 1b ad 0e 3c
       -0.048921987 0.013134898 0.025602363 0.008708264
000050 0a cb 21 bd 5c 0e ed 3b 92 7a fd bd f7 2f 29 bd
       -0.039500274 0.007234378 -0.12376894 -0.04130551
000060 c1 5b 88 3d 07 b8 26 3c cd 89 08 3d 11 74 9c bd
       0.06658126 0.0101757115 0.033334542 -0.076393254
000070 b7 00 94 bb 1b e0 a1 3c d7 0c c8 3b 86 79 6c 3d
       -0.004516687 0.019760182 0.0061050463 0.05773308
000080 bf 46 e8 bc 9c 7d 2f bc 78 d9 85 bd 18 8c 68 3d
       -0.028354047 -0.0107111 -0.065356195 0.05677423
000090 73 d5 5a 3c 73 35 45 bc 6a 66 89 bd 39 59 d3 3b
       0.013356554 -0.012036669 -0.06708987 0.006449845
0000a0 fd c5 8f 3c da b4 8e bc 82 e9 c6 bd b1 b6 fe 3c
       0.017550463 -0.017420221 -0.09712507 0.031092973
0000b0 d4 3b 73 3d e3 3b bb 3c b7 34 27 3d d6 66 5e bd
       0.05938323 0.022855705 0.040821757 -0.05429729
0000c0 65 6d d7 3b 0b 1b 18 3c ac f7 0b 3d 04 bc 57 bb
       0.00657432 0.009283791 0.034171745 -0.0032918463
0000d0 88 10 13 bc 37 56 f0 3c 42 ad 92 bd 20 28 34 3d
       -0.008976109 0.029337985 -0.071619526 0.04398358
0000e0 ae ca 82 3d 70 07 58 3c 20 0a 82 3d 48 09 b7 39
       0.06386314 0.013185367 0.063495874 0.00034911395
0000f0 d3 48 e0 3c 26 5b e2 3c e9 2a 53 3d be 4a ae bd
       0.027378475 0.027631354 0.051554594 -0.0851035
000100 f2 d4 35 bd 8a 83 a1 bb 6e a9 5c bc 00 70 c1 3a
       -0.044392534 -0.0049290108 -0.01346813 0.001475811
000110 60 c1 95 bc 54 32 30 3d 01 da f5 3c df f4 ff 3d
       -0.018280685 0.043016747 0.030011179 0.12497877
000120 07 61 95 bc de 6a 1b 3d b4 45 46 3d 76 38 80 bc
       -0.018234743 0.037943713 0.048406318 -0.015651923
000130 1d 05 a1 3a 7b c3 52 bd 91 8a 98 bc 1f ed af 3a
       0.0012284849 -0.051455956 -0.018620761 0.0013422108
000140 db a6 6f 3d 42 d0 29 3d cf 59 1f 3c 7f c7 82 3d
       0.058508735 0.041458376 0.009726002 0.06385707
000150 ea 27 6d 3d 70 24 58 3d c2 57 bc 3d 99 ae c0 bb
       0.057899393 0.052769125 0.09196426 -0.0058801887
000160 6d cc 85 bc 5f 56 26 3c bc d3 86 bc f0 a1 cd bc
       -0.01633283 0.010152428 -0.016458385 -0.025101632
000170 9f ca cc bc 80 be 7a 3d fe 3b bf 3a b5 08 1c bd
       -0.024998961 0.06121683 0.0014590023 -0.03809424
000180 d6 fc 6e 3d 60 ea 1d 3d d0 b3 62 3d b6 5d d2 3b
       0.058346592 0.038553596 0.055347264 0.0064198626
000190 00 bc 4c 3d 9b 60 23 bd 31 3f 9f 3c e7 56 03 3d
       0.04998398 -0.039887052 0.019439312 0.0320653
0001a0 4c ef 81 3d ea c0 e9 3d dd 1f c1 bc 5f 35 ea 3c
       0.063444704 0.114137486 -0.023574764 0.028589902
0001b0 7d 40 e4 3c ff 17 0c 3d 09 67 98 ba d2 eb 2d 3d
       0.027862782 0.034202572 -0.0011627387 0.042461224
0001c0 77 35 47 ba 67 d9 68 3d f1 31 34 3c e6 bc ca 3a
       -0.00075992144 0.056847956 0.010998235 0.0015467673
0001d0 c0 9a 4f 3d 17 2e f0 bb 6f 5b 3b 3d 62 cd 85 3d
       0.05068469 -0.007329713 0.045741495 0.06533314
0001e0 c6 05 95 bc fd 23 cf 3c 30 54 ac bd 54 21 0c 3d
       -0.01819123 0.025285715 -0.08414495 0.03421147
0001f0 c5 00 a0 bd 03 d7 8c 3d 16 0d 85 3c 20 42 ca bc
       -0.07812647 0.06876948 0.016241591 -0.024689734
000200 aa e9 28 3c c8 10 02 3d 30 5d 40 bd 2c b8 54 bd
       0.010309616 0.031754285 -0.04696387 -0.051933452
000210 ee 57 e6 bc 66 73 58 3b 18 38 21 bd da 30 78 bd
       -0.0281181 0.0033027767 -0.039360136 -0.060593463
000220 b7 75 4c bd 8f 82 21 bb 7d ae 2f bc f5 bd 57 3b
       -0.04991695 -0.002464447 -0.010722754 0.003291962
000230 16 43 63 3d 87 d1 8e 3d 11 02 49 3d 7f 45 81 3c
       0.0554839 0.06973558 0.049074236 0.015780209
000240 74 a5 08 3b 6e 71 84 3c d1 ad 33 bc 61 ed 87 3d
       0.002085057 0.016167369 -0.010966734 0.06637073
000250 f2 f4 a4 3d 2c f4 fd bc ac 3f 95 bb 04 e5 76 3a
       0.08054532 -0.03100022 -0.0045547094 0.0009418281
000260 4e bd 9a 3d c9 0a 51 3d 4d f8 e6 bc 50 d2 f6 bc
       0.07555638 0.051035676 -0.02819457 -0.030129582
000270 17 83 81 bd bd ef 7b 3d a3 a2 73 3d 4a 63 a9 3d
       -0.063238315 0.06150793 0.059481274 0.08270891
000280 7f 2d 3d 3d eb 1f 3d bc 16 27 8c 3c d4 94 6c ba
       0.046185967 -0.011543254 0.017108481 -0.00090248627
000290 31 f5 39 bd ac b7 2a 3c 4e b1 29 bd 61 7e 2b bd
       -0.04539985 0.010419767 -0.041428857 -0.04186857
0002a0 82 c3 e3 3c 33 8c ff 3b cd d1 2b bd 08 45 e0 bc
       0.027803186 0.0077986955 -0.04194813 -0.027376667
0002b0 9e 86 f8 3c da a3 ba 3b 32 ac 13 bd 73 57 0a 3b
       0.030337628 0.005695802 -0.03605289 0.0021109253
0002c0 8b 0a cb 3c 23 c3 33 3d e6 ff 98 bc 38 7a d6 3b
       0.0247853 0.04388727 -0.01867671 0.0065453313
0002d0 cf 14 52 3b d7 d1 2a bd 6d 25 0e 3d e5 f0 d0 3a
       0.003205586 -0.041704025 0.03470366 0.0015940933
0002e0 b5 44 14 bd 10 d9 9c 3b 4e d1 54 bd 8f 88 23 bc
       -0.036198337 0.004786618 -0.05195742 -0.009981289
0002f0 9c ad 01 3d 5a 48 a2 3d f5 2e 8d 3d 52 37 88 bd
       0.031659707 0.07923956 0.06893722 -0.066511765
000300 27 08 b7 bc cc 90 e3 bb 48 73 88 bc a9 e6 0e 3c
       -0.022342755 -0.0069447514 -0.016656533 0.008721986
000310 a8 56 0e bc fc 72 bb bd 2e 19 24 3d 34 cd 14 3d
       -0.008687653 -0.09152791 0.040063076 0.03632851
000320 45 72 e9 bc 53 ba 75 bd c9 44 09 3d 39 2d 18 bd
       -0.02849687 -0.059992146 0.033512864 -0.037152503
000330 e3 0b 90 bc 76 96 43 3d 8a 42 2e bd 89 e9 cd bc
       -0.017583793 0.047750913 -0.042543925 -0.025135772
000340 dd da 09 3e 50 71 bf bc a8 47 a2 bc 11 1d 51 3d
       0.13462396 -0.023369461 -0.019809559 0.05105311
000350 f0 93 98 bc c6 fe 35 bd 5a 1a 32 3d 29 2f 14 bd
       -0.01862523 -0.044432424 0.043482162 -0.036177788
000360 e9 92 6c ba 40 e3 aa bc 14 aa da 3c af 0d 99 3c
       -0.0009024577 -0.020860314 0.026692428 0.018683283
000370 9c a9 c7 3b 84 9c 17 bd eb 41 86 3c 91 b2 1d 3d
       0.006093217 -0.0370145 0.016388854 0.038500372
000380 8e 90 5e 3d 44 8c 58 bb 84 1b cc bc bf 97 4e bd
       0.054337077 -0.003304259 -0.024915464 -0.050437685
000390 6c 74 e6 bd 28 cc a3 3d f1 45 68 3b d1 5f 86 bd
       -0.112526745 0.07997924 0.003544208 -0.06561244
0003a0 4f ec 0c bd 0a 1f f5 bb 20 fe 42 bc 6a b6 27 bd
       -0.03440505 -0.007480507 -0.011901408 -0.040945448
0003b0 df 6a 8d bc 98 00 d2 bc 3e a2 3e bd 7c bd 74 3d
       -0.017262874 -0.025635049 -0.046541445 0.05975102
0003c0 1d 12 72 3c b1 91 96 3c 73 cb 39 3b a5 29 e6 3b
       0.014774826 0.018380018 0.0028350025 0.0070240074
0003d0 3e cf 0e bd c5 77 09 bc 9d c1 1d bd b7 fb e1 3c
       -0.03486561 -0.008390372 -0.038514722 0.027585847
0003e0 28 46 a8 3d 23 e9 6a 3d 2d 5a f9 3d f5 9a 39 3d
       0.08216506 0.057351243 0.12175403 0.045313794
0003f0 f4 78 18 3d 43 ad 91 3c 4e 03 2d 3b 85 64 6f bc
       0.037224725 0.017782813 0.0026399675 -0.014611368

bias f4 [100]
000000 37 63 50 bd 90 30 de 3d 0c 71 d9 bd a8 00 70 bd
       -0.05087587 0.10849106 -0.10617265 -0.058594376
000010 95 2d 99 3b 1b 61 a6 bd b3 ec 8c bc ac 12 42 be
       0.0046746233 -0.0812399 -0.01720271 -0.18952435
000020 07 1e 47 bd 14 95 9a 3c b0 fd 8e bc 99 c0 ce bb
       -0.04861262 0.018869914 -0.017454952 -0.0063095805
000030 c6 92 fe bd b2 01 6a be 70 b6 77 3d 65 93 fd bc
       -0.124303386 -0.22852209 0.06047672 -0.030954072
000040 d1 47 9d bd 42 a7 02 3d 31 64 b5 bd 6c 13 45 3d
       -0.076797135 0.03189779 -0.088570006 0.048114225
000050 eb 70 1a be 8b 1c 09 be 93 74 56 3d 73 28 1b be
       -0.15082137 -0.13389795 0.052357268 -0.15152149
000060 38 bd 07 3c 56 05 27 be c6 8a 58 be d6 28 e5 3d
       0.008284859 -0.16310629 -0.21146688 0.111894295
000070 16 58 c2 bd f2 cf 72 bd ae 60 98 3b b7 cc 0d bd
       -0.09489457 -0.059280343 0.004650197 -0.03461906
000080 02 6f 4c 3d 16 48 2e be ea e7 c2 bd 36 e4 5c 3c
       0.049910553 -0.17019686 -0.0951689 0.013482144
000090 0e 2d 4c 3d 8c 45 bf 3b d8 4a 50 bd 11 5e a5 bd
       0.049847655 0.005837148 -0.050852627 -0.08074582
0000a0 04 c5 b1 bd 5d f3 33 be b1 b1 fc 3b cf 95 08 be
       -0.08680156 -0.17573304 0.007711612 -0.13338397
0000b0 d5 11 9c 3d ad f2 db bc b1 6e 5b bc 63 d9 69 be
       0.07620589 -0.026849115 -0.01339309 -0.22836833
0000c0 f1 d9 e3 bb 99 8e 16 be 85 12 66 bd ac 74 3c be
       -0.006953471 -0.14702834 -0.056170005 -0.18403882
0000d0 96 03 88 be fa f0 02 be ed 9b 47 bd f9 3c 01 be
       -0.26565236 -0.12787238 -0.048732687 -0.12620915
0000e0 91 de 24 3d e9 be b2 3c ff b0 45 be 0c 15 a4 3b
       0.04025132 0.021819549 -0.193058 0.005007392
0000f0 e7 3b 61 be d9 92 8f bd 82 6a d3 bd 5e de 8d 3c
       -0.21995507 -0.07010431 -0.10323049 0.017317947
000100 7d 99 85 3d f7 1b 2f 3d 68 a2 c8 3d 5d e8 d7 bd
       0.06523416 0.04275128 0.097966015 -0.10542367
000110 db 5d a9 bd 9a 7e 71 be da e8 06 be 7f 75 61 3d
       -0.08269855 -0.23583451 -0.13174763 0.055043694
000120 35 9b 01 be 5b fe fb bd b7 9e 7d bd 6e 3d 89 3c
       -0.12656863 -0.12304374 -0.06191894 0.016752925
000130 69 99 ed bd c8 4c e8 bd 8d 76 1d be a2 40 43 be
       -0.11601526 -0.1134277 -0.15377255 -0.19067624
000140 ef 72 80 3d fb 2a 94 bd 3f cb 86 bd b1 ba 89 be
       0.06271922 -0.072347604 -0.06581735 -0.26900247
000150 c3 9a 78 be de be 8c 3c 75 0c 13 bd fe 12 3b bc
       -0.24277787 0.017180856 -0.03590055 -0.011418102
000160 12 d5 2c be 2f f1 b7 bd 57 d7 37 bd f4 e0 58 bc
       -0.16878155 -0.08981549 -0.0448831 -0.013237227
000170 d0 86 a3 bd b6 96 27 3d 42 3a de bd 70 77 50 bd
       -0.07984698 0.040915214 -0.108509555 -0.050895154
000180 de a4 13 be 92 3b 9a bd 37 22 19 bd 54 d4 63 bc
       -0.1441836 -0.075308934 -0.037386145 -0.013905603

weight f4 [100]
000000 4f 52 74 3f 30 6c 67 3f cd ae 7e 3f 98 fe 68 3f
       0.9543809 0.90399456 0.99485475 0.9101348
000010 1a 0b 70 3f bc 95 74 3f 7a b1 73 3f 54 75 92 3f
       0.9376694 0.95540977 0.9519268 1.1442056
000020 3c 82 81 3f 9c 00 64 3f 63 1b 67 3f 9a 1a 72 3f
       1.0117869 0.8906343 0.90276164 0.9457184
000030 31 79 85 3f 79 42 89 3f cf 20 68 3f 8b 4d 8b 3f
       1.042761 1.0723411 0.9067506 1.0883039
000040 2b a8 78 3f 18 f3 72 3f a8 5a 7d 3f ba 75 65 3f
       0.97131604 0.9490218 0.98966455 0.8963276
000050 a8 03 7f 3f bc 6e 6c 3f 2f c2 7f 3f 49 be 83 3f
       0.99614954 0.9235647 0.99905676 1.0292445
000060 9e f4 68 3f 5d 01 95 3f 6c aa 8b 3f 19 1d 74 3f
       0.90998256 1.1641041 1.0911384 0.953569
000070 e4 af 80 3f 36 48 80 3f 02 ce 68 3f b4 c4 80 3f
       1.0053678 1.0022037 0.9093934 1.0060029
000080 65 08 6c 3f de 13 7d 3f 61 ca 75 3f f2 49 7a 3f
       0.9220031 0.9885844 0.9601193 0.9776908
000090 10 35 6f 3f e5 54 67 3f 2c 94 78 3f 72 dc 7c 3f
       0.9344034 0.90363914 0.9710109 0.9877387
0000a0 44 bc 6f 3f e6 52 81 3f 8d 1f 70 3f a0 5b 82 3f
       0.93646646 1.0103424 0.9379814 1.0184212
0000b0 76 f5 7a 3f 07 61 6c 3f 58 ee 70 3f 13 3c 96 3f
       0.98030794 0.9233555 0.94113684 1.1737083
0000c0 97 43 75 3f 46 68 81 3f fc b2 87 3f f2 a2 91 3f
       0.9580626 1.0109947 1.0601497 1.1377852
0000d0 a6 1e 8e 3f bc c2 84 3f 84 e0 73 3f b2 a9 81 3f
       1.1103103 1.0371928 0.9526446 1.0129912
0000e0 72 3b 77 3f 48 ec 70 3f b3 95 78 3f 96 41 81 3f
       0.9657508 0.94110537 0.9710342 1.009814
0000f0 fd 5a 91 3f d4 8f 86 3f ad df 79 3f 02 9a 80 3f
       1.1355892 1.0512643 0.9760693 1.0047
000100 e3 18 77 3f 43 69 72 3f 7e bd 75 3f 97 3e 7f 3f
       0.9652235 0.94691867 0.9599227 0.9970488
000110 d2 3e 7a 3f 65 00 87 3f df 1b 76 3f 4c 40 61 3f
       0.97752106 1.0546995 0.9613628 0.87988734
000120 64 74 84 3f dc 9b 87 3f 03 b1 7c 3f 8f 36 6c 3f
       1.034802 1.059444 0.987076 0.9227075
000130 36 ad 84 3f e0 20 84 3f b6 e7 85 3f d8 d9 95 3f
       1.036536 1.0322533 1.0461338 1.1707106
000140 7b 60 76 3f 48 72 73 3f ee 26 72 3f 82 b2 84 3f
       0.9624097 0.95096254 0.9459065 1.0366976
000150 10 76 85 3f bb 06 70 3f c8 d1 81 3f a5 16 6b 3f
       1.0426655 0.9376027 1.0142145 0.9183143
000160 6b a2 80 3f d9 cd 82 3f d1 51 64 3f f3 e6 6b 3f
       1.0049566 1.021907 0.8918734 0.92149276
000170 be ae 7e 3f 31 bb 7f 3f b9 ba 8a 3f 6c 46 81 3f
       0.99485385 0.99895006 1.0838233 1.0099616
000180 9d 9b 82 3f 19 85 82 3f 51 91 75 3f 97 5d 7b 3f
       1.020374 1.0196868 0.9592486 0.9818968

bias f4 [100]
000000 ee 1f d9 3d a7 27 5c 3d ce b6 24 3e ac 4a 17 3e
       0.10601793 0.053748753 0.1608536 0.14774579
000010 cc 42 f1 3d 36 01 21 be 27 13 2b 3c 56 c5 84 3d
       0.117803186 -0.15723118 0.010441578 0.06482951
000020 29 26 7b 3d dc 8f a4 bd 88 eb d4 3c 30 77 97 bd
       0.06131569 -0.080352515 0.025991216 -0.0739578
000030 0f 7b dd 3c bc 9b 38 3e 88 2d e2 3c a4 b4 00 3e
       0.027036218 0.18028158 0.027609602 0.12568909
000040 9d f8 bb 3c d5 ea fa bd 31 1a 99 3d ec 7d 21 3d
       0.022945696 -0.12251822 0.07475699 0.03942673
000050 62 b2 79 bd 6f 77 3a 3d 94 d4 d4 3d f7 40 22 3d
       -0.060961135 0.045524057 0.103921086 0.039612737
000060 8c c0 be 3d 2f 27 13 3e 92 b6 c6 bb 2f 3c 93 3d
       0.09314069 0.14370416 -0.0060642445 0.071892135
000070 b0 b3 b9 bd e9 88 bc 3d 40 68 8f 3b 17 40 bb 3d
       -0.09067476 0.09205801 0.0043764412 0.091430835
000080 5a 0f 90 bc ed 6a 54 3d d2 22 a0 3d ca 3d ec bc
       -0.017585445 0.051859785 0.078191414 -0.028838057
000090 91 a9 ec 3d f3 f3 d6 3d 4e e2 5a 3d 85 ab 12 3e
       0.1155578 0.10495748 0.053438477 0.14323242
0000a0 e4 f5 f2 3d 72 81 25 3e 07 79 d1 3d b0 6a eb bc
       0.11863306 0.1616266 0.10228162 -0.028737396
0000b0 fa fd 93 3d 9f 9a b9 3d 91 bf d2 3d 64 9b 15 3e
       0.072261766 0.09062695 0.10290445 0.14610058
0000c0 8d 72 00 3e 48 a8 c5 bd 9d 51 93 bc 00 a6 04 3e
       0.12543698 -0.09651238 -0.017983252 0.12953949
0000d0 8c 5b ce 3d 12 03 1d bd 72 ed af 3d 78 88 0b 3e
       0.10076055 -0.038333006 0.08590211 0.13626277
0000e0 64 35 cb 3c 99 6d 89 bd 11 e4 84 bd 06 d6 9e 3d
       0.024805732 -0.06710357 -0.06488813 0.077556655
0000f0 cb a1 fb 3d 40 e4 03 3e c3 43 bc 3d 63 98 f2 3d
       0.12286719 0.12880039 0.09192612 0.11845472
000100 2c c0 49 3d 41 4c 03 bd 43 7a 3d 3d 65 d0 7c 3d
       0.049255535 -0.032055143 0.046259176 0.061722178
000110 fc e7 b4 3d 23 5d 3d 3e b9 ba a6 bd 88 c2 3d 3d
       0.0883331 0.1849256 -0.08141083 0.046328098
000120 fb bd d5 3d 84 56 76 3d c7 fd e2 3d 1e 47 a1 3d
       0.104366265 0.0601411 0.110835604 0.07874893
000130 49 c8 d2 bd 4d 63 38 3c cf 8a 51 3c 64 45 43 3e
       -0.102921076 0.011254144 0.012789442 0.19069439
000140 2d ca 6f 3d af d1 b8 bd 03 99 e4 3c 2a 69 2b 3e
       0.05854242 -0.09024369 0.027904993 0.16739336
000150 3e b6 51 3e b8 e5 4e 3b 3e 97 f1 3d ad 11 2d 3d
       0.20479676 0.0031570029 0.11796425 0.042253185
000160 78 20 ad 3d 9e fc 0e 3e 5f 10 52 3d e9 e9 36 3e
       0.084534585 0.13963553 0.051285144 0.17862667
000170 f6 6d 2d be 00 a9 50 3d 29 9f cc bc 44 cf 8a bc
       -0.16936478 0.05094242 -0.024978237 -0.016944535
000180 50 1b 2e bd 30 0f 3d bd 24 25 0c 3e 0c a8 ca bc
       -0.042506516 -0.046157062 0.13686043 -0.024738334
